checkpoints/panpeptide_AAid.pt (torch, 455410 bytes, 45 tensors)

embeddings.weight f4 [21, 21]
0	0x00000000	0.0
1	0x00000000	0.0
2	0x00000000	0.0
3	0x00000000	0.0
4	0x00000000	0.0
5	0x00000000	0.0
6	0x00000000	0.0
7	0x00000000	0.0
8	0x00000000	0.0
9	0x00000000	0.0
10	0x00000000	0.0
11	0x00000000	0.0
12	0x00000000	0.0
13	0x00000000	0.0
14	0x00000000	0.0
15	0x00000000	0.0
16	0x00000000	0.0
17	0x00000000	0.0
18	0x00000000	0.0
19	0x00000000	0.0
20	0x00000000	0.0
21	0x3e4e6ebd	0.20159431
22	0x3f1acbb7	0.60467094
23	0xbfcca019	-1.5986358
24	0x3f50dca5	0.81586677
25	0x3f5018d7	0.812879
26	0x3f99bc1c	1.2010531
27	0xbfa16f74	-1.2612138
28	0x3e43fbfa	0.1913909
29	0xbf151dcd	-0.582486
30	0x3ec9f57c	0.39445102
31	0x3e375d9e	0.17906806
32	0xbf4f767f	-0.81040186
33	0x3f81127e	1.0083768
34	0xbf91d00d	-1.1391617
35	0xbf6041d1	-0.8760043
36	0x3e64ccdc	0.22343773
37	0x3f5121d4	0.8169224
38	0x3f547bda	0.8300148
39	0xbf41077e	-0.7540206
40	0xbfa0ebdf	-1.2571982
41	0x3f71f68a	0.94516814
42	0xbf02dc1f	-0.5111713
43	0xbe164930	-0.14676356
44	0x3edeef96	0.43542165
45	0x3e485fe5	0.19567831
46	0x3ec5fe2f	0.3867049
47	0x3f4d04f6	0.80085695
48	0xbf2243c6	-0.63384664
49	0xbd3ab9f6	-0.045587502
50	0xbe161ab7	-0.14658628
51	0x3fde644e	1.737436
52	0xbf0db991	-0.55361277
53	0xbf8be21f	-1.0928382
54	0xbfdaad3c	-1.7084117
55	0xbd14e76e	-0.03635352
56	0xbdd0a2a1	-0.10187269
57	0xbf78f069	-0.97241837
58	0xbf841484	-1.0318761
59	0x3fbd2e5e	1.4779775
60	0xbf0bce7d	-0.5461195
61	0xbdc36c2a	-0.09542115
62	0x3f0c4c60	0.5480404
63	0xbfbe44cc	-1.4864745
64	0x3f405238	0.75125456
65	0xbeccbf2f	-0.39989612
66	0xbfd64923	-1.674107
67	0xbf79157d	-0.97298414
68	0xbfd1a739	-1.6379157
69	0xbf62b3a4	-0.8855536
70	0xbeda1187	-0.42591497
71	0xbf5bc836	-0.8585237
72	0x3df53b23	0.1197417
73	0x3f8ebfa1	1.115223
74	0xbe958d0a	-0.29209167
75	0x3f7f6715	0.99766666
76	0x3f2b6bd6	0.6696142
77	0xbe8ca71c	-0.27471244
78	0x3f00fe8b	0.503884
79	0xbe364398	-0.17799222
80	0x3ef22deb	0.47300658
81	0x3f03b977	0.5145487
82	0xbe8d721c	-0.2762612
83	0x3ea53c16	0.32272404
84	0xbe084cf2	-0.13310602
85	0x3fa94be9	1.3226291
86	0xbf8dbb3a	-1.1072762
87	0xbf922ff7	-1.1420888
88	0xbdebbe59	-0.11510915
89	0x3e87132c	0.26381814
90	0x3f03fb74	0.5155556
91	0x3eeff147	0.46863768
92	0xbf3424a8	-0.70368433
93	0x3e96b701	0.29436496
94	0xbf58b2c4	-0.84647775
95	0x3e05d9a0	0.13071299
96	0xbe313308	-0.17304623
97	0x3e559f46	0.20861539
98	0xbcdb4457	-0.026765985
99	0xbf589a8d	-0.84610826
100	0x3f6dc33b	0.92876023
101	0x3eea0fd8	0.45715213
102	0x3f427f13	0.7597515
103	0x3ef8a35f	0.48562142
104	0xbfd16d46	-1.6361473
105	0x3e94fb39	0.29097918
106	0xbed37c57	-0.413058
107	0xbc797431	-0.015225456
108	0xbe3d87a4	-0.18508774
109	0xbf4cf96a	-0.80068076
110	0xbec0d836	-0.37664956
111	0xbf685a32	-0.9076263
112	0x3fb314c2	1.399071
113	0xbf1735a4	-0.59066224
114	0xbe03f201	-0.12885286
115	0x3f15da8a	0.5853659
116	0xbec7bfea	-0.39013606
117	0x3ddae1f1	0.10687626
118	0x3f268c09	0.65057427
119	0xbe39f3a1	-0.18159343
120	0xbfa3e18b	-1.2803205
121	0x3f7302bd	0.94926053
122	0xbf4463ae	-0.767146
123	0xbecc2334	-0.39870608
124	0xbf84c16b	-1.0371526
125	0xbf1340f3	-0.5752098
126	0xbef66092	-0.48120552
127	0x3fb70dd7	1.4301099
128	0xbfced796	-1.6159542
129	0xbf98292e	-1.1887567
130	0x402b4b4a	2.6764703
131	0xbe76ed35	-0.24113925
132	0xbe886c02	-0.26644903
133	0xba1f6dbd	-0.0006081721
134	0x3e762507	0.24037562
135	0x3ffa772c	1.9567618
136	0x3f82bb88	1.021348
137	0x3edd2d87	0.43198797
138	0x3f1b221c	0.6059892
139	0x3f119797	0.5687193
140	0xbe87ab87	-0.26498052
141	0x3ee1b33f	0.44082066
142	0xbfbacb55	-1.4593302
143	0xbf87d1c6	-1.0610893
144	0xbf73b927	-0.95204395
145	0xbf771a29	-0.9652429
146	0xbe158021	-0.14599659
147	0xbf8c5c48	-1.0965662
148	0x3f703a21	0.938387
149	0xbf05a63f	-0.52206796
150	0x3fb97399	1.4488403
151	0x3f2ebe2b	0.68258923
152	0x3f2fba78	0.68643904
153	0xbef9da40	-0.48799324
154	0xbe7894b4	-0.24275476
155	0x3f4d89cf	0.80288404
156	0xbe8c79af	-0.27436587
157	0xbd69843b	-0.05701087
158	0xc0057bee	-2.085689
159	0x3f689cc2	0.90864193
160	0x3fb515e0	1.4147301
161	0xc0124af2	-2.2858243
162	0xbf41a614	-0.7564404
163	0x3e2ada53	0.16684847
164	0xbf911686	-1.1334999
165	0xbef7c66a	-0.48393565
166	0x401fbc6f	2.495876
167	0xbfd6fd4d	-1.6796051
168	0x3fc10619	1.5079986
169	0xbe997d80	-0.2997856
170	0x3f7f69b7	0.99770683
171	0xbfb13f78	-1.3847494
172	0x3eb7a2a0	0.3586626
173	0x3eebd393	0.46059856
174	0xbe963fe6	-0.29345626
175	0xbfa39b40	-1.2781754
176	0x3c0a72ff	0.008450269
177	0x3ef7937c	0.4835471
178	0xbf006bc9	-0.5016447
179	0x3f1dacf7	0.6159205
180	0xbe4897c5	-0.19589145
181	0x3f9c38a6	1.2204788
182	0xbf41c935	-0.7569764
183	0x3f42a408	0.7603154
184	0xbea998ba	-0.33124334
185	0x3f635d50	0.8881426
186	0x3fb8f77c	1.4450526
187	0xbf6a34d6	-0.9148687
188	0xbed722de	-0.4201879
189	0xc00ba7a0	-2.182106
190	0xbf428cbb	-0.7599599
191	0xbfa8e47c	-1.3194728
192	0x3f256b7e	0.64617145
193	0x3ed04b6b	0.4068254
194	0x3ecb91af	0.39759585
195	0xbc9e883e	-0.019352075
196	0xbed93e49	-0.42430332
197	0x3d9d8a85	0.07692436
198	0xbed59eaf	-0.41722628
199	0x3e9cdd7b	0.30637726
200	0xc01a3df0	-2.4100304
201	0x3d1ed01b	0.038772684
202	0xbf90a1ee	-1.1299417
203	0x3f9df479	1.2340232
204	0x3ea1ae77	0.3157842
205	0xbeb643a9	-0.35598496
206	0x3f048824	0.51770234
207	0x3f6aa2e6	0.91654813
208	0xbfdf0054	-1.7421975
209	0xbf104458	-0.56354284
210	0x3f64837f	0.8926315
211	0x3e9847b9	0.2974222
212	0x3fcb2a30	1.587225
213	0x3f84505e	1.0337026
214	0x3e99c869	0.30035713
215	0xbfb00f9a	-1.3754761
216	0xc0623fe1	-3.5351489
217	0xbfdb6f25	-1.7143294
218	0xc0046acf	-2.069019
219	0x400a859b	2.1644046
220	0x3f8d62c7	1.104577
221	0xbf1ee7bc	-0.6207235
222	0xbf17f795	-0.59362155
223	0x3fc8095e	1.5627859
224	0xbfae6c66	-1.362683
225	0x3f1dee20	0.61691475
226	0x3f223da1	0.6337529
227	0xbf541c9f	-0.8285617
228	0x3ef059dc	0.46943557
229	0x3d488d81	0.048963074
230	0x3f97da7c	1.1863551
231	0xbf09a6c2	-0.5377008
232	0xbffb8f06	-1.9653022
233	0x3e895ca1	0.26828483
234	0xbe1b1f45	-0.15148647
235	0x3f92dfcd	1.1474549
236	0x3ee2e4dc	0.4431523
237	0x3ef23480	0.4730568
238	0x3f016665	0.50546867
239	0xbef48b55	-0.47762552
240	0xbf3b98c3	-0.7327997
241	0xbaba6fe6	-0.0014224022
242	0x3f5d675d	0.86485845
243	0xbe61c025	-0.22045954
244	0xbf7ece64	-0.9953368
245	0xc030fb4d	-2.7653382
246	0x3fb0a17b	1.379928
247	0x3f1969a6	0.5992683
248	0xbf0bf4b8	-0.54670286
249	0x3f38e2b5	0.7222093
250	0x3e916627	0.2839825
251	0xbf0e80a7	-0.5566506
252	0x3ec62a21	0.38704017
253	0x3f27ff1b	0.65623635
254	0xbfdf326f	-1.7437266
255	0xbfccd96b	-1.6003851

proja.weight f4 [384, 21]
0	0x3d930eeb	0.0718058
1	0x3e81b6db	0.2533482
2	0xbce1e498	-0.027574822
3	0xbe245bae	-0.16050598
4	0xbc99d41c	-0.0187779
5	0xbe66e0cf	-0.22546695
6	0x3e0dfffa	0.13867179
7	0x3cd1a643	0.025591975
8	0xbe114d28	-0.14189589
9	0x3dc2e450	0.095162034
10	0xbb8832c2	-0.0041564414
11	0x3d9523d6	0.07282226
12	0xbd8bb823	-0.06822231
13	0xbea27e43	-0.31736955
14	0xbd93eb6a	-0.07222636
15	0xbe1b4fba	-0.15167132
16	0x3c2b64fd	0.010461089
17	0x3db195b8	0.08671135
18	0x3c8e9c56	0.017408531
19	0xbe05a87a	-0.1305255
20	0xbea58f02	-0.3233567
21	0x3c661013	0.014041918
22	0x3e411fc6	0.18859777
23	0x3daf22b4	0.08551541
24	0x3dca01df	0.09863638
25	0x3e8b4aea	0.27205592
26	0x3daeedd3	0.08541455
27	0xbd97b74f	-0.0740801
28	0xbd0a864a	-0.033819474
29	0x3e844317	0.25832435
30	0xbe00f07f	-0.12591742
31	0xbcecb8d6	-0.02889673
32	0xbddb7fb1	-0.107177146
33	0x3e019f20	0.12658358
34	0x3e9f0b08	0.31063104
35	0x3e15a929	0.1461531
36	0xbd1ba1cc	-0.0379961
37	0xbdc1cb19	-0.09462566
38	0xbdf4fe7d	-0.11962602
39	0x3e2e3d85	0.17015655
40	0x3e886f9b	0.26647648
41	0xbe5f8ecc	-0.21831816
42	0x3dcf1c6e	0.101128444
43	0x3e2d4815	0.16922028
44	0x3e63a328	0.22230208
45	0x3e0e71ab	0.13910548
46	0xbe058f58	-0.13042963
47	0x3ddad85f	0.10685801
48	0xbe08d198	-0.13361204
49	0x3ea48b4f	0.32137534
50	0x3c302d58	0.010752998
51	0xbcbbb93a	-0.022915471
52	0xbe171322	-0.14753392
53	0xbd9b6065	-0.07586745
54	0xbe8e0a1f	-0.27742097
55	0x3e835584	0.2565118
56	0x3c1a0314	0.009400148
57	0x3da3cad9	0.079976745
58	0x3e1f93e6	0.15583763
59	0x3d768195	0.060182173
60	0x3cb44e4b	0.02200999
61	0xbd89bc64	-0.06725386
62	0x3d44604d	0.047943402
63	0x3d1b3556	0.037892662
64	0xbceb7d77	-0.02874635
65	0xbdc2056f	-0.094736926
66	0x3de6dc6a	0.112725094
67	0xbd37e638	-0.044897288
68	0xbe28ff95	-0.16503747
69	0x3d9d0116	0.07666223
70	0x3dce389a	0.1006939
71	0x3db65b08	0.089040816
72	0x3c213397	0.00983896
73	0x3d9d3699	0.07676429
74	0xbdea22df	-0.114324324
75	0xbe472ce3	-0.19450717
76	0xbe368f0b	-0.17828004
77	0xbe1ed975	-0.15512641
78	0x3d1e75b8	0.038686484
79	0xbde490c1	-0.11160422
80	0xbdc6f211	-0.09714139
81	0x3e4fe5e9	0.20302548
82	0xbe01844c	-0.12648124
83	0xbdbfec81	-0.093712814
84	0x3dcadf25	0.09905843
85	0xbc3ec5a5	-0.011643802
86	0x3e26ba56	0.16282019
87	0xbe27aab2	-0.16373709
88	0xbdf254c8	-0.11832577
89	0x3c4a2f38	0.012340359
90	0x3ded95ae	0.11600815
91	0x3da2af33	0.07943573
92	0xbd591a72	-0.053003736
93	0x3e1e95df	0.15486859
94	0xbdcdbfe3	-0.10046365
95	0x3d736759	0.059424732
96	0xbafa36ca	-0.0019089815
97	0xbd6f21b4	-0.05838175
98	0x3e235d37	0.15953527
99	0x3e66c203	0.22534947
100	0xbe342093	-0.17590551
101	0xbdcaa3be	-0.098945126
102	0x3eac3af2	0.33638722
103	0xbe988d0f	-0.2979512
104	0xbc8391d0	-0.01606074
105	0xbda93602	-0.08262254
106	0x3720524b	9.5559035e-06
107	0xbc2cca04	-0.010546211
108	0xbe3d742f	-0.18501352
109	0x3d3a7908	0.04552558
110	0x3dc6afba	0.09701486
111	0xbdc8450d	-0.097787954
112	0x3e050470	0.12989974
113	0x3d95a14b	0.07306155
114	0x3d807df5	0.062740244
115	0x3d52e83e	0.051491015
116	0xbe46856e	-0.19386837
117	0xbe171ec0	-0.14757824
118	0x3c089ce3	0.008338186
119	0x3c23086c	0.009950738
120	0x3dc7d141	0.09756709
121	0x3e041d40	0.12901783
122	0x3d94c288	0.072636664
123	0xbc3ab453	-0.011395532
124	0x3d9f3cea	0.0777529
125	0xbd6f4baa	-0.05842177
126	0xbd2f5dc1	-0.04281402
127	0xbbe9e859	-0.0071382937
128	0x3e866434	0.26248324
129	0x3def64a4	0.116891176
130	0xbe44c437	-0.19215475
131	0x3e604491	0.21901156
132	0x3e0beae7	0.13663827
133	0xbdb72a83	-0.08943655
134	0xbde4b4c1	-0.111672886
135	0xbddf5361	-0.10904575
136	0xbe7dce54	-0.24785739
137	0xbda06e1a	-0.078335
138	0x3e6de6e8	0.23232615
139	0xbdf5929e	-0.11990856
140	0xbe4a8260	-0.19776297
141	0x3d59ee1c	0.053205594
142	0x3e873d25	0.26413837
143	0x3d63c3ca	0.05560664
144	0xbe07f481	-0.13276865
145	0xbd38810b	-0.04504494
146	0x3e04d3a0	0.12971354
147	0xbcbf68bd	-0.023365373
148	0x3de5fc16	0.11229722
149	0xbcd7e911	-0.026356252
150	0x3e0c51be	0.13703057
151	0xbcfe035e	-0.031007465
152	0xbe2cc5a4	-0.16872269
153	0xbe5ec1f1	-0.2175367
154	0xbe1dcab6	-0.1540936
155	0xbd2e8455	-0.04260667
156	0xbdc32422	-0.09528376
157	0xbdc79d2c	-0.09746775
158	0x3c1fe060	0.009758085
159	0xbe6494f7	-0.2232245
160	0x3ddeb0f0	0.10873592
161	0x3e1803a6	0.14845142
162	0x3da4a994	0.08040157
163	0x3e565aa0	0.20933008
164	0x3e65c975	0.22440131
165	0xbeb73657	-0.35783646
166	0x3d80756a	0.06272395
167	0xbe0be9d4	-0.13663417
168	0xbd8d08fd	-0.0688648
169	0xbb365cdf	-0.0027826352
170	0x3afe998d	0.0019424424
171	0x3cdb85dc	0.026797228
172	0xbba9ccdf	-0.0051818932
173	0x3cd1942c	0.02558335
174	0x3bc30642	0.0059516737
175	0xbd0d48ab	-0.03449313
176	0xbc567795	-0.013090034
177	0x3c1ea622	0.009683164
178	0xbcf150a0	-0.02945739
179	0x3d115680	0.035482883
180	0x3c66e8c6	0.014093583
181	0x3cf36315	0.029710332
182	0x3c511aa5	0.0127627
183	0x3cc192c9	0.023629563
184	0x3d3b7d13	0.045773577
185	0xbae9ae50	-0.0017828438
186	0xbc7bc264	-0.015366171
187	0xbba73356	-0.0051025553
188	0xbb294021	-0.0025825577
189	0xbe35deda	-0.17760792
190	0x3e20631e	0.1566281
191	0x3e1827ef	0.14858983
192	0x3c397f9a	0.0113219265
193	0x3e1cc4f4	0.15309507
194	0xbe5d1760	-0.21590948
195	0xbbd409e3	-0.006470905
196	0xbe040d1c	-0.12895626
197	0x3e81a529	0.2532132
198	0xbd203776	-0.03911539
199	0x3b5cd93c	0.0033698818
200	0xbdee4f36	-0.11636202
201	0xbd42745b	-0.047474246
202	0x3d6e977d	0.05824994
203	0x3e7fc732	0.2497833
204	0xbe451c41	-0.1924906
205	0x3d779f12	0.060454436
206	0xbd63315f	-0.055467006
207	0xbd125ff1	-0.035736028
208	0x3eaaf4d9	0.3338993
209	0xbdaab0c3	-0.08334496
210	0x3dfd4282	0.12366201
211	0xbc915d1a	-0.01774459
212	0xbe0dfcb1	-0.13865925
213	0x3e0743c5	0.13209446
214	0xbd9f06ff	-0.07765006
215	0x3d973fd5	0.07385222
216	0xbe1f66ea	-0.15566602
217	0x3d5cd029	0.053909454
218	0x3e9687d1	0.29400495
219	0x3c33a3b7	0.010964326
220	0x3e04fe81	0.1298771
221	0xbe1a3e98	-0.1506294
222	0x3e80eb41	0.25179484
223	0x3e242cbe	0.16032693
224	0xbd8f384d	-0.069931604
225	0xbdc0dd84	-0.09417251
226	0x3e967d94	0.29392684
227	0x3e03a9a9	0.12857689
228	0xbd1cfdff	-0.038328167
229	0x3cd490de	0.025947984
230	0x3c24527b	0.0100294305
231	0xb9c32c6d	-0.00037226398
232	0xbe4d97b4	-0.20077401
233	0xbd4f677f	-0.05063581
234	0xbca9fabf	-0.020749448
235	0x3e16627f	0.14686011
236	0x3d9483d2	0.07251705
237	0xbd99c86d	-0.07508931
238	0x3d3a30b5	0.045456607
239	0xbd88f23c	-0.066868275
240	0xbd50c4c5	-0.050968904
241	0xbe0d8737	-0.13821112
242	0xbe463ee3	-0.19359927
243	0x3e6db563	0.23213725
244	0x3dde17f1	0.1084441
245	0xbe12c875	-0.14334281
246	0x3e07b765	0.13253553
247	0x3dc03046	0.093842074
248	0x3e1f8ad4	0.15580302
249	0xbe063a27	-0.13108121
250	0x3c038968	0.008028366
251	0xbddf713c	-0.109102696
252	0x3e0a67cd	0.1351616
253	0xbe2d40df	-0.16919278
254	0xbb8943ae	-0.0041889763
255	0x3db045ab	0.08607038

proja.bias f4 [384]
0	0x3d7dfc55	0.06200822
1	0x3decc6f2	0.11561383
2	0xbe105698	-0.14095533
3	0x3b1beb04	0.0023791203
4	0x3e615902	0.2200661
5	0xbe12be2d	-0.14330359
6	0x3e739615	0.2378772
7	0xbe293f75	-0.16528113
8	0x3c6f8014	0.014617939
9	0x3b3c3e69	0.0028723723
10	0xbbfce7d7	-0.007718067
11	0xbb24ade5	-0.0025128063
12	0xba9f6027	-0.0012159393
13	0x3bcfb9d9	0.0063392934
14	0xbe3ce37f	-0.18446158
15	0xbe42fee6	-0.19042549
16	0x3de7f178	0.113253534
17	0x3e26718f	0.16254257
18	0x3de895e4	0.11356714
19	0x3e8bf271	0.27333406
20	0x3e4eaa0b	0.20182054
21	0xb95a27af	-0.00020804883
22	0x3e3a5834	0.1819771
23	0xbdb4bea6	-0.08825426
24	0x3d05d29c	0.032671556
25	0x3e91a064	0.2844268
26	0x3e6375bc	0.22212881
27	0xbe4da2a9	-0.20081581
28	0xbc8c70c1	-0.017143609
29	0x3be56762	0.0070008496
30	0x3d9b4ed5	0.075833954
31	0xbd5d848c	-0.054081485
32	0xbb4ec1cf	-0.0031548624
33	0x3b712554	0.003679593
34	0xbdfc1173	-0.12308016
35	0x3bc04999	0.0058681485
36	0x3e7134d2	0.23555306
37	0xbc34a964	-0.011026714
38	0xbe330c36	-0.17485127
39	0xbe7ede41	-0.2488947
40	0xbd748226	-0.05969443
41	0xbcbbd6fd	-0.022929663
42	0xbb762684	-0.0037559578
43	0xbdddfe62	-0.10839535
44	0x3daea9be	0.085284695
45	0xbc124941	-0.008928598
46	0xbe7a7a62	-0.24460748
47	0x3a66a554	0.00087984395
48	0x3e2a8084	0.16650587
49	0xbe5b3292	-0.2140601
50	0xbbe5590a	-0.0069991397
51	0xbd9aa1b0	-0.07550371
52	0x3b4f7e3d	0.0031660937
53	0xbe04ef7f	-0.12981986
54	0x3e63b123	0.22235541
55	0xbab4080b	-0.0013735307
56	0x3beee6a8	0.00729068
57	0xbe05d358	-0.13068902
58	0xbac97282	-0.0015369209
59	0xb9a87d0b	-0.0003213662
60	0xbdb31f96	-0.08746259
61	0x3e06424f	0.13111232
62	0x3d1b018c	0.037843272
63	0x38c31483	9.302145e-05
64	0xbb93fe85	-0.004516425
65	0x3e87c3fc	0.26516712
66	0xbebd1a2c	-0.3693403
67	0xb9e53bab	-0.0004372274
68	0x3c67b88f	0.014143123
69	0x3b6964df	0.0035613102
70	0xbe1856dd	-0.14876886
71	0xbe03da2a	-0.12876192
72	0x3e9428a2	0.2893725
73	0x3b52b5b2	0.0032151756
74	0x38e49e88	0.00010901416
75	0xbe2a2db4	-0.16618997
76	0x3dd69149	0.1047693
77	0xbea23b8d	-0.3168606
78	0x3b03960a	0.0020078444
79	0xbdec55b8	-0.11539787
80	0x3d4860ba	0.04892037
81	0xbe391b37	-0.18076788
82	0x3d581e99	0.052763555
83	0x3b9e89e5	0.0048382157
84	0xbe22557f	-0.15852927
85	0x3e1148ee	0.14187977
86	0xbad4faad	-0.0016249024
87	0x3db8fd6e	0.09032713
88	0xbd6f0824	-0.058357373
89	0x3dc3ece9	0.095666714
90	0xbc30c050	-0.010788038
91	0xb98cd9b1	-0.00026865074
92	0xbaa2ba5c	-0.0012415159
93	0x3a99eaf7	0.0011742999
94	0x3cc99636	0.024607759
95	0xbde6e7cc	-0.112746805
96	0xbd931553	-0.07181802
97	0xbe424f92	-0.18975666
98	0x3d7f6d35	0.062360007
99	0xbc07aaa8	-0.008280434
100	0xbdb2afc6	-0.087249324
101	0x3d9044a6	0.07044344
102	0x3e108da0	0.14116526
103	0x3a008d2d	0.00049038493
104	0x3e59daa8	0.21274817
105	0xbdb32503	-0.08747294
106	0xbdf7b7aa	-0.12095578
107	0x3ba54c27	0.0050444785
108	0xbde05725	-0.109541215
109	0x3e3bcc31	0.18339612
110	0x3de51469	0.111855336
111	0x3e72ed09	0.23723234
112	0x3d57c72c	0.05268018
113	0xbe257c93	-0.16160803
114	0x3d9fdd46	0.078058764
115	0xbe8a7059	-0.2703884
116	0xbe07d889	-0.13266195
117	0x3bb07b4c	0.005385792
118	0xbda618a8	-0.081101716
119	0xbe3e156a	-0.18562856
120	0x3d0ce83f	0.034401175
121	0x3b3707c7	0.002792822
122	0x3a40b9ec	0.0007351923
123	0x3e1f7b1a	0.15574303
124	0xbd8d7a7a	-0.06908126
125	0xbda4cb35	-0.08046571
126	0xbe36903f	-0.17828463
127	0x3a42017a	0.0007400733
128	0x3e4977df	0.19674633
129	0xbe1a7fa9	-0.15087761
130	0x3caf2092	0.021377835
131	0x3c37c07f	0.011215328
132	0xbb1a29c4	-0.002352343
133	0xbd37a13b	-0.044831496
134	0xbbba1a4a	-0.0056794034
135	0x3e802815	0.2503058
136	0x3dc066c1	0.09394599
137	0x3e688425	0.22706659
138	0xbd32889c	-0.043587312
139	0x3cf1d7ed	0.029521907
140	0xbe988081	-0.2978554
141	0x3e0a6d4c	0.13518256
142	0x3e008dd0	0.12554097
143	0xbb2c374f	-0.0026278084
144	0xbd8b1db4	-0.06792775
145	0x3b408434	0.0029375674
146	0x3953d520	0.00020201923
147	0xbdb81cd0	-0.089898705
148	0x3a33c16c	0.000685713
149	0xba619d52	-0.00086065114
150	0xbe910ea3	-0.2833148
151	0xbd05ed4f	-0.03269702
152	0x3b99ab1b	0.004689587
153	0x3b632cb3	0.0034664094
154	0x3d277385	0.040881652
155	0x3ba0c43b	0.004906205
156	0x3a62ec46	0.00086564233
157	0xbe4e9752	-0.20174912
158	0xbb3cfdf7	-0.0028837898
159	0xbdb499fe	-0.08818434
160	0x3e847133	0.25867614
161	0xbe26e010	-0.1629641
162	0x3e672b94	0.22575217
163	0x3e267b09	0.16257872
164	0x3b0a3ec6	0.0021094545
165	0x3daff2d6	0.08591239
166	0xbc91b407	-0.017786039
167	0xbbc36c35	-0.005963827
168	0xbdb3715e	-0.087618575
169	0xba5b9a50	-0.00083771814
170	0x3e51ef94	0.20501548
171	0x3b0ca9e2	0.0021463563
172	0x3e63412d	0.22192831
173	0x3d546ab1	0.05185956
174	0xbe2372e1	-0.15961792
175	0xbbc4d226	-0.006006497
176	0xbad863af	-0.00165092
177	0x3b37589e	0.0027976404
178	0x3e2c1e75	0.16808493
179	0x3b05f974	0.0020442875
180	0xbe019754	-0.12655383
181	0xbe1cd793	-0.1531661
182	0x3e8916cf	0.26775214
183	0x3e220e68	0.15825808
184	0xbe56058b	-0.20900552
185	0xbe401175	-0.1875666
186	0x3a6b3a1c	0.00089731975
187	0xbb25c501	-0.0025294425
188	0x3d48ec29	0.049053345
189	0x3b669e21	0.0035189467
190	0x3c0444cf	0.008073046
191	0x3d50a848	0.050941736
192	0xbe7bb7c9	-0.24581827
193	0x3b1ffdd8	0.0024412777
194	0xba100b94	-0.00054948893
195	0xbdb3e818	-0.08784503
196	0xbd667316	-0.0562621
197	0x3d3982ef	0.045290884
198	0xbe4fc9b9	-0.20291795
199	0x3de16528	0.11005622
200	0xbb70fcb9	-0.0036771728
201	0xb9a33d62	-0.00031135516
202	0xbe1134a8	-0.14180243
203	0x3a5021c9	0.00079396047
204	0xbe1251d8	-0.14289033
205	0xbd312001	-0.043243412
206	0x3e9abf73	0.3022419
207	0xbd5a24ad	-0.053257633
208	0xbdeb2675	-0.114819445
209	0x3db059c0	0.086108685
210	0xba540610	-0.00080880616
211	0xbda0e1d6	-0.07855575
212	0x3e4fa2e1	0.20276977
213	0x3e0311b1	0.12799717
214	0xbe214401	-0.15748598
215	0x3bed0b0b	0.0072339824
216	0xbdacad93	-0.08431544
217	0xbd94f481	-0.07273198
218	0x391d5d24	0.00015007384
219	0x3dc37db6	0.09545462
220	0xbaa2fbae	-0.0012434626
221	0x3a8bcb57	0.0010665458
222	0xbe0d095c	-0.13773102
223	0xbb9c23b3	-0.004764998
224	0xbd7e1ea3	-0.062040936
225	0x3cf4f174	0.02990029
226	0x3c64426e	0.013931854
227	0xbe8493b1	-0.2589393
228	0x3e81f681	0.2538338
229	0xbb01974b	-0.0019774016
230	0x3d10b32c	0.03532712
231	0x3cbb069b	0.022830298
232	0xbd2c3102	-0.042038925
233	0x3e0dcc70	0.13847518
234	0x3e3d8e4f	0.18511318
235	0x3b09dde0	0.0021036789
236	0xbe4694df	-0.19392727
237	0x3acd62f7	0.0015669753
238	0x3ea5e687	0.3240244
239	0x3b521b50	0.0032059737
240	0xbb27e1fb	-0.0025616873
241	0xba3465a0	-0.00068815984
242	0x3c208e5b	0.009799565
243	0x3d1f37ba	0.038871504
244	0x3c3273ba	0.010891849
245	0x3bb1c7c6	0.005425426
246	0xbc6d1e5f	-0.014472573
247	0xbdfa1552	-0.12211098
248	0xbdacb456	-0.08432834
249	0x3e271608	0.16316998
250	0x3e56b5a4	0.20967728
251	0xbce1988d	-0.027538562
252	0x3ec60ed6	0.38683194
253	0xbbd62132	-0.006534719
254	0x3d9df7ca	0.07713278
255	0x3dab5cac	0.08367285

projp.weight f4 [384, 21]
0	0xbc8db5d6	-0.01729862
1	0x3e8798df	0.2648382
2	0x3d62bccf	0.055355843
3	0xbe4245c9	-0.18971933
4	0x3f08514b	0.53249043
5	0x3dfb9a19	0.12285251
6	0x3e0e8760	0.13918829
7	0xbdec367d	-0.1153383
8	0x3d889008	0.06668097
9	0x3e2005af	0.15627168
10	0xbc3e658f	-0.011620893
11	0xbdef942b	-0.11698183
12	0x3e8816c0	0.26579857
13	0x3dfe258a	0.12409504
14	0xbc01e7f7	-0.00792884
15	0x3d398574	0.045293286
16	0x3d3fe96d	0.04685347
17	0xbe21b392	-0.15791157
18	0xbe65aa73	-0.22428302
19	0x3eba5869	0.36395577
20	0xbe1df33e	-0.15424821
21	0x3e17b154	0.14813739
22	0xbbdee26a	-0.006801893
23	0xbe04cb03	-0.12968068
24	0x3ddeecc6	0.10885005
25	0xbd46cf93	-0.048537802
26	0x3e4c66bd	0.19961067
27	0xbe82bef5	-0.25536314
28	0xbd82d245	-0.06387762
29	0xbd4e1485	-0.050312538
30	0x3d8a3f72	0.067503825
31	0xbd7e5294	-0.06209047
32	0x3cb128f1	0.021625968
33	0xbe898c01	-0.26864627
34	0xbe256515	-0.16151841
35	0xbdcd8f65	-0.10037116
36	0x3d8f689b	0.07002374
37	0x3a68dc0f	0.0008882889
38	0xbe2e5f69	-0.17028584
39	0xbcdd379d	-0.027004058
40	0xbe89cf12	-0.26915795
41	0x3e83e98c	0.2576412
42	0xbcb5a982	-0.022175554
43	0x3e3105e9	0.17287411
44	0xbcf8e306	-0.03038169
45	0xbb4aef61	-0.0030965435
46	0xbd86b449	-0.065773554
47	0x3e2e3412	0.17012051
48	0x3e2a32cb	0.16620938
49	0x3d06340b	0.032764476
50	0x3e7c5875	0.24643119
51	0xbe54c94f	-0.20779918
52	0x3e0fdea4	0.14049774
53	0x3ca32d24	0.019918986
54	0x3e2bcadf	0.16776608
55	0x3c124ff8	0.008930199
56	0xbd893157	-0.06698864
57	0x3db79497	0.08963888
58	0xbe91cb4f	-0.28475425
59	0x3dc723aa	0.09723599
60	0x3df9abb7	0.12190955
61	0x3e21c4df	0.15797757
62	0xbdcdd68e	-0.10050689
63	0xbde83d13	-0.11339774
64	0x3e8c989b	0.2746018
65	0x3e7ad8d1	0.24496771
66	0x3e22f06a	0.15912023
67	0x3e8f2d96	0.27964467
68	0x3d8115a6	0.06302957
69	0xbc845739	-0.016154872
70	0x3d061312	0.03273303
71	0xbe56f4c7	-0.20991813
72	0xbe00effa	-0.12591544
73	0x3e267176	0.1625422
74	0xbd079cf0	-0.03310865
75	0xbdd54b5c	-0.10414764
76	0xbe2aedc9	-0.1669227
77	0xbe72852b	-0.23683612
78	0x3e0c9236	0.1372765
79	0x3eb79c6a	0.35861522
80	0x3daad270	0.08340919
81	0xbc01b6cb	-0.007917116
82	0xbe518857	-0.20462166
83	0x3e04927a	0.12946501
84	0x3d7ccf17	0.061720934
85	0x3e4ddfa0	0.20104837
86	0xbe95a401	-0.29226688
87	0xbd832249	-0.06403024
88	0xbd76e3eb	-0.060275953
89	0x3d880129	0.06640846
90	0xbe48444b	-0.19557302
91	0xbd35ffde	-0.044433467
92	0x3b941f9b	0.004520369
93	0xbe75ecb4	-0.24016076
94	0x3d5b276b	0.05350439
95	0x3e095e44	0.13414866
96	0xbe6d035a	-0.2314581
97	0x3c5f255b	0.013619746
98	0xbe3fdf7c	-0.18737596
99	0xbe42cea9	-0.19024147
100	0x3a83e732	0.0010063408
101	0x3cd21c31	0.025648208
102	0x3e390497	0.18068157
103	0x3c3a4b00	0.01137042
104	0x3e8ce3bb	0.27517495
105	0xbe532e78	-0.20623195
106	0x3e433fc8	0.190673
107	0xbe2ae77a	-0.16689864
108	0x3b9fa29f	0.004871681
109	0xbdbcce42	-0.09219028
110	0x3e1fe8a9	0.15616097
111	0x3df21ff3	0.118225
112	0x3e40ec65	0.18840177
113	0x3e2bea02	0.16788486
114	0xbd9f5bb3	-0.07781162
115	0xbe176147	-0.14783202
116	0xbd8a6f42	-0.06759502
117	0x3e061465	0.13093717
118	0x3c91f362	0.01781625
119	0x3e56143d	0.20906158
120	0xbd1bd1ca	-0.038041867
121	0xbe2ab919	-0.16672172
122	0x3df3fb47	0.11913162
123	0x3d864dbd	0.06557796
124	0xbd166b2a	-0.036723293
125	0x3c8574a3	0.016290968
126	0xbec18155	-0.37793985
127	0x3ea27ad5	0.31734338
128	0x3debac45	0.11507467
129	0xbca0af01	-0.019614698
130	0x3e868df3	0.26280174
131	0xbde8c1c6	-0.11365084
132	0xbd1296b4	-0.035788253
133	0x3e1b56e1	0.1516986
134	0x3ef0de13	0.4704443
135	0xbd17f687	-0.03710034
136	0xbc0ec5ce	-0.0087141525
137	0xbda529b2	-0.080645934
138	0xbd1054cc	-0.03523712
139	0x3ae45502	0.0017420354
140	0x3e8395ea	0.25700313
141	0x3dc4b920	0.09605622
142	0xbcabd8e1	-0.02097744
143	0x3bc03b86	0.0058664707
144	0x3e0c274c	0.13686866
145	0xbdd5d72d	-0.10441432
146	0x3e78bd45	0.2429095
147	0x3d2084a7	0.039189007
148	0xbd389ade	-0.045069568
149	0xbdcebb2b	-0.10094293
150	0xbd873944	-0.066027194
151	0x3dccd993	0.100024365
152	0xbe00ed83	-0.12590604
153	0xbde1a452	-0.1101767
154	0x3d99a2e5	0.07501773
155	0x3e2e61cd	0.17029496
156	0x3e3b86e8	0.18313181
157	0x3dcc7134	0.09982529
158	0x3dc30fb0	0.095244765
159	0xbdace526	-0.08442144
160	0xbe436976	-0.19083199
161	0xbd8fe19e	-0.07025455
162	0x3dae65f5	0.085155405
163	0x3dbaa648	0.09113747
164	0xbd23fa48	-0.04003361
165	0x3df90636	0.12159388
166	0xbe8260ac	-0.2546438
167	0xbd30cc1c	-0.043163404
168	0x3e1265d8	0.14296663
169	0x3dcf9f20	0.101377726
170	0xbe3ec4e0	-0.1862979
171	0x3cfe344a	0.031030793
172	0x3e48e73e	0.19619462
173	0x3d40189f	0.04689848
174	0x3d9d390d	0.07676897
175	0xbd8fa386	-0.070136115
176	0x3e1072c9	0.14106287
177	0xbd92a71b	-0.07160779
178	0xbe5533f3	-0.20820598
179	0xbd37f70a	-0.04491333
180	0x3d889227	0.06668501
181	0x3cebd85c	0.028789692
182	0x3e82b3e3	0.25527868
183	0xbe15fd9f	-0.1464753
184	0xbca73bb8	-0.020414218
185	0x3e1559b8	0.14585006
186	0xbc887e2e	-0.01666173
187	0x3df70176	0.120608255
188	0x3ceeda1a	0.029156733
189	0x3e71afe5	0.23602255
190	0x3e457309	0.19282164
191	0x3e966409	0.29373196
192	0xbdfb8ce1	-0.1228273
193	0x3e60307f	0.218935
194	0xbc4b128e	-0.0123945605
195	0x3e82f58d	0.25577965
196	0xbdaeb35d	-0.085303046
197	0xbca1d5db	-0.019755295
198	0x3e3c6cb6	0.18400845
199	0x3e3567fb	0.17715447
200	0x3ea9905a	0.33117944
201	0x3eac0298	0.3359573
202	0x3dc4389d	0.095811106
203	0xbe99989e	-0.2999925
204	0xbe91236d	-0.2834734
205	0xbe1ef54b	-0.1552326
206	0x3e551e8a	0.20812431
207	0xbe89323e	-0.26796144
208	0xbe0f43de	-0.13990733
209	0xbe224095	-0.15844949
210	0x3d2de9df	0.042459365
211	0xbb2397d0	-0.0024962313
212	0x3ccd6b2e	0.025075521
213	0x3dab9ac5	0.08379129
214	0x3e3e9ac0	0.1861372
215	0x3db98f23	0.09060504
216	0xbdf58a24	-0.11989239
217	0x3dcc8283	0.09985831
218	0xbd8b2540	-0.06794214
219	0xbe7d3217	-0.24726139
220	0xbe6e6027	-0.23278867
221	0x3e2b30fa	0.16717902
222	0xbd8d2d60	-0.0689342
223	0x3c6c282d	0.0144138755
224	0xbdae3a2f	-0.085071914
225	0xbda6f26d	-0.08151708
226	0xbcb5d65d	-0.022196943
227	0xbe1e230b	-0.15443055
228	0x3dd5fd45	0.10448698
229	0xbe60f306	-0.21967706
230	0xbe283f4c	-0.16430396
231	0xbe421f99	-0.18957366
232	0x3d3c3d03	0.045956623
233	0xbbc7d33a	-0.006098178
234	0x3d4a00db	0.049317222
235	0xbb4157a4	-0.00295017
236	0x3cc0d6a0	0.023539841
237	0x3e0d3478	0.13789546
238	0x3e1967ee	0.14981052
239	0x3e2d0c6d	0.16899271
240	0xbe1411cd	-0.14459915
241	0x3cfc4086	0.030792486
242	0xbe55702d	-0.20843573
243	0xbd931f11	-0.0718366
244	0x3e1976f1	0.14986779
245	0xbc3b42f6	-0.011429539
246	0xbe4d0f40	-0.20025349
247	0x3d850a5e	0.06496118
248	0xbe313d35	-0.17308505
249	0x3db29e6f	0.08721625
250	0xbdec1f74	-0.11529437
251	0xbdfb2491	-0.12262834
252	0x3e1979ef	0.1498792
253	0x3e1bd619	0.1521839
254	0x3d570c64	0.05250205
255	0x3dcdb2f5	0.10043899

projp.bias f4 [384]
0	0xbd32bc95	-0.043636877
1	0xbe375174	-0.17902166
2	0xbd8151d1	-0.06314433
3	0xbabd69ee	-0.0014451125
4	0x3dd2a07e	0.10284518
5	0xbe12d443	-0.14338784
6	0x3e0c5588	0.13704503
7	0x3d98c4e9	0.07459433
8	0xbe3181fb	-0.1733474
9	0xbb38ff64	-0.0028228397
10	0xbbb1f91f	-0.005431309
11	0x3e1a76b4	0.15084344
12	0x3e095f52	0.13415268
13	0xbd77b71c	-0.06047736
14	0x3e6891d7	0.22711883
15	0xbb1a63e5	-0.0023558077
16	0x3bd60be6	0.00653218
17	0xbc7a8f8d	-0.015293014
18	0xbe1b5234	-0.15168077
19	0x3d4732a5	0.048632283
20	0x3e5d96e0	0.21639585
21	0x3992d0fd	0.00028002998
22	0xbacbc286	-0.0015545643
23	0x3e181e52	0.14855316
24	0x3b27b2f0	0.0025588833
25	0xbb027feb	-0.001991267
26	0x3bb845c7	0.0056235525
27	0xbe0f05dc	-0.13967079
28	0x3e25f0e6	0.16205177
29	0x3e0e4d4d	0.13896675
30	0xbe4a6e6d	-0.19768687
31	0x3d745ae2	0.059656985
32	0x3e0469c7	0.12930976
33	0x3e72ccbb	0.23710911
34	0xbaf0cfae	-0.001837244
35	0xbdcdb419	-0.100441165
36	0xbdb0413a	-0.08606191
37	0xbe97602a	-0.29565555
38	0xbdf71289	-0.12064082
39	0x3e1b5ff0	0.15173316
40	0x3dc42d60	0.09578967
41	0xbddd0ae5	-0.107930936
42	0x3d146a6d	0.036234308
43	0xbd5968ef	-0.053078588
44	0xb8ff46de	-0.000121725476
45	0xbbafc2a5	-0.0053637796
46	0xbe80c38d	-0.25149193
47	0xbe41f225	-0.18940027
48	0x3d988635	0.07447473
49	0x3e39e8af	0.18155168
50	0x3e19652c	0.1498
51	0xbe15de15	-0.14635499
52	0xbe39a7d6	-0.1813043
53	0xbdfd53e6	-0.12369518
54	0x3ae97cf6	0.001781373
55	0x3dddf442	0.10837604
56	0xbb193069	-0.0023374802
57	0xbe8a5d90	-0.27024508
58	0x3b091d19	0.0020921885
59	0x3c4faa9b	0.012674953
60	0xbac2cb42	-0.0014861601
61	0xbb5c2d55	-0.0033596356
62	0xbd1121c7	-0.035432603
63	0xbe0ddfce	-0.13854906
64	0x3c1ffb72	0.009764539
65	0x3a938ee9	0.00112578
66	0x3e47c58c	0.19508952
67	0xbdcd63d3	-0.100288056
68	0xbe151487	-0.14558612
69	0x3e2c21b2	0.16809729
70	0xbb1ae6b6	-0.002363605
71	0xbe4c4894	-0.19949561
72	0x3c724686	0.014787322
73	0x3e11ebf4	0.14250165
74	0x3de8190e	0.11332904
75	0x3e458297	0.19288097
76	0xbde1a272	-0.11017312
77	0x3d7e57f9	0.062095616
78	0x3e3f7ca8	0.18699896
79	0xbdd572fb	-0.104223214
80	0x3e50745c	0.20356888
81	0xbd103fca	-0.035217084
82	0xbe68c778	-0.22732341
83	0xbeafac38	-0.3431108
84	0x3b4962e7	0.0030729116
85	0x3e21bd7e	0.15794942
86	0xbd7a70b2	-0.06114263
87	0x3a78fb10	0.00094978604
88	0xba80ad95	-0.0009817356
89	0xbd989d1d	-0.07451842
90	0x3dd57243	0.10422184
91	0xbdb3d1af	-0.08780228
92	0xbe966b90	-0.2937894
93	0x3e5504c0	0.20802593
94	0x3a048b1a	0.0005056128
95	0xbd219125	-0.03944506
96	0xbe2244d9	-0.15846576
97	0xba93c2e3	-0.0011273291
98	0x3d8c50d6	0.06851356
99	0xbe2dbbcd	-0.16966172
100	0xbdeb9ff7	-0.1150512
101	0xba48c4ea	-0.0007658737
102	0x3e628df4	0.22124463
103	0x3b10e611	0.0022109787
104	0x3e3724b3	0.17885093
105	0x3e7adf5c	0.24499267
106	0xbc9147f8	-0.017734513
107	0xbc530267	-0.012878991
108	0xbe0e3c83	-0.13890271
109	0x3d18ec39	0.037334654
110	0xbb5fd209	-0.003415229
111	0xbdeb99b8	-0.11503929
112	0xbaf69afd	-0.0018814501
113	0x3b651ef1	0.003496107
114	0x3eac1df2	0.33616596
115	0xbd2d0f14	-0.042250708
116	0xbc1c4dbd	-0.009540019
117	0xbe975362	-0.29555804
118	0xbd66f34f	-0.05638438
119	0x3ce74500	0.028231144
120	0x39001d95	0.00012218051
121	0xbab151b5	-0.0013528379
122	0x3a7ed7d7	0.00097214937
123	0xbd4b40c4	-0.049622312
124	0xbab0b761	-0.0013482386
125	0x3e12c01a	0.14331093
126	0xbe207cd7	-0.15672623
127	0x3e22ba7b	0.15891449
128	0xbe820013	-0.25390682
129	0x3dd05100	0.101716995
130	0x3d982750	0.07429373
131	0x3dfd1f5f	0.12359499
132	0x3a1959c6	0.0005849864
133	0x3df0db0c	0.1176053
134	0x3e13365d	0.14376207
135	0x3e111e6d	0.14171763
136	0xbd0ebf80	-0.034850597
137	0xbe0322fa	-0.12806311
138	0xb94c0b0e	-0.00019459074
139	0xbde7b38f	-0.11313545
140	0xbce0de43	-0.027449733
141	0xbde203b1	-0.1103586
142	0xbe7b2fca	-0.24529949
143	0xbde39c5c	-0.111138076
144	0xb9983d70	-0.00029037474
145	0x3c0d1cb6	0.008612802
146	0xbccca2bd	-0.024979943
147	0xbda506cf	-0.08057939
148	0xbae13d92	-0.0017184487
149	0xbde166d1	-0.11005939
150	0x39cb6fba	0.0003880242
151	0xbc605f88	-0.013694651
152	0xbbf72191	-0.007541843
153	0x3ceb6b6f	0.028737752
154	0xbea3a341	-0.3196049
155	0xbe801ef2	-0.2502361
156	0xbd9ff6f3	-0.07810774
157	0x3b6f55b9	0.00365196
158	0xbe6eedea	-0.23332945
159	0x3a02f90c	0.00049962173
160	0x3a98ff7c	0.001167282
161	0xb96e320f	-0.00022716097
162	0x3ccd3a24	0.025052138
163	0x3a3e023a	0.00072482566
164	0x3e19705f	0.14984272
165	0x3e43b3f3	0.19111614
166	0xbe22a447	-0.1588298
167	0x3e2bed67	0.1678978
168	0x3e6da930	0.23209071
169	0xbac10b2b	-0.001472806
170	0x3e1f63e8	0.15565455
171	0xbd7c89d0	-0.061654866
172	0xbdb49cb5	-0.08818952
173	0xbd744ccf	-0.059643563
174	0xbe11ffd3	-0.14257745
175	0x3dcfbbc6	0.10143237
176	0xbcff6798	-0.031177327
177	0x3a65ec81	0.00087708986
178	0xbdf02e4f	-0.11727583
179	0x3d9e29eb	0.07722839
180	0x3dfabd39	0.122431226
181	0xbea1cd14	-0.31601775
182	0x3e7218d3	0.23642282
183	0x3e06b1bb	0.13153736
184	0xbe71008c	-0.23535365
185	0xbc9d6c81	-0.019216778
186	0xbd9fc875	-0.07801906
187	0x3dc9c778	0.09852499
188	0xbea47527	-0.3212063
189	0x3e45b842	0.1930857
190	0xbd49feef	-0.04931539
191	0x3ba71a24	0.0050995518
192	0xbddf5b7a	-0.1090612
193	0x3e305e51	0.17223479
194	0x3a090f61	0.0005228427
195	0x39a7744d	0.00031939373
196	0x3dbda76a	0.09260447
197	0xbd8f2519	-0.06989498
198	0xbb574095	-0.003284489
199	0xbd06b4c1	-0.032887224
200	0x3ab8dcbc	0.001410387
201	0x3c88dc78	0.01670669
202	0xba861d1d	-0.0010232065
203	0xbdac1b4a	-0.084036425
204	0xbdbc36ae	-0.09190117
205	0x3bb56433	0.0055356263
206	0xbb06f5a8	-0.00205932
207	0xbcce2ad6	-0.02516691
208	0xba139ac7	-0.00056306686
209	0x3e9755d5	0.29557672
210	0xbb030c0d	-0.0019996196
211	0x3e77062b	0.24123447
212	0xbd846188	-0.06463915
213	0x3e0242ba	0.12720767
214	0x3e849bbb	0.25900063
215	0xbd9c05fe	-0.076183304
216	0x3d5ee308	0.054415733
217	0x3d8b79f9	0.06810374
218	0xbd658b27	-0.05604091
219	0x3952321f	0.00020045832
220	0x3b0140a1	0.001972236
221	0x3c2de585	0.010613804
222	0x3e159701	0.14608385
223	0xbe80370f	-0.25042006
224	0xbe3929f9	-0.18082418
225	0xbd9ea835	-0.07746927
226	0x38d275e0	0.00010035536
227	0x3caece51	0.021338614
228	0x3b95a324	0.004566567
229	0x3a192b4c	0.00058429386
230	0x3a91c749	0.0011122014
231	0x3dcd26f7	0.100171976
232	0x3e2f022e	0.17090675
233	0xbd90ccde	-0.07070325
234	0xb9c60aee	-0.00037773646
235	0xbafd3a7e	-0.00193198
236	0xbd361a32	-0.044458576
237	0x3b55f20e	0.0032645497
238	0x3a6d2e71	0.0009047753
239	0xbb454b72	-0.0030104783
240	0x3d90b582	0.0706587
241	0x3d08124a	0.033220567
242	0x3e5b7a3a	0.21433344
243	0x3e20cbb3	0.15702705
244	0xbe676dfc	-0.2260055
245	0xbd864b93	-0.065573834
246	0x3e0e1b3b	0.13877575
247	0xbe575a34	-0.21030504
248	0xbe873fba	-0.26415807
249	0x3e73ab97	0.23795925
250	0xbdba1e89	-0.09087855
251	0x3e352002	0.17687991
252	0xbe240ceb	-0.16020553
253	0x3e4e07a3	0.201201
254	0x3da5b28c	0.08090696
255	0x3dc1f834	0.09471169

projm.weight f4 [384, 21]
0	0xbe261ca2	-0.1622186
1	0x3e104fe4	0.14092976
2	0xbda0609b	-0.07830926
3	0x3e09f7fe	0.13473508
4	0x3da51823	0.08061244
5	0x3e127132	0.14300993
6	0xbe05ace8	-0.1305424
7	0x3d0fc460	0.035099387
8	0xbe07cd64	-0.13261944
9	0x3e541f78	0.2071513
10	0x3dba6c51	0.09102691
11	0x3cd03b9f	0.025419055
12	0x3e62b294	0.22138435
13	0x3d8d9440	0.06913042
14	0xbe05788d	-0.13034268
15	0xbe217aed	-0.15769549
16	0xbd783432	-0.060596652
17	0xbbb4331e	-0.0054992577
18	0xbd73fdfb	-0.059568387
19	0xbe3e25ed	-0.18569155
20	0xbdacc398	-0.08435744
21	0x3e00e571	0.12587525
22	0xbdfb6731	-0.122755416
23	0xbd8f7b8c	-0.070059866
24	0xbe2eee32	-0.17083052
25	0xbe75d566	-0.24007186
26	0xbe56f606	-0.20992288
27	0x3d91f38a	0.071265295
28	0xbe081a2d	-0.13291235
29	0x3da4938d	0.080359556
30	0xbe1e1b14	-0.15440017
31	0xbe4e4e7d	-0.20147128
32	0x3db2fc2c	0.08739504
33	0xbdc9b364	-0.09848669
34	0xbe38bdb8	-0.18041122
35	0x3e5093be	0.20368859
36	0xbcabcabb	-0.020970693
37	0x3e37dd47	0.17955504
38	0x3890b397	6.899906e-05
39	0x3e5ee99f	0.21768807
40	0x3e5510d7	0.20807205
41	0xbd3adab5	-0.04561873
42	0xbdc23a7c	-0.09483811
43	0x3b044ca1	0.0020187276
44	0x3e18cd2a	0.14922014
45	0xbccd0a6e	-0.025029387
46	0xbe332151	-0.17493178
47	0xbb7ccd05	-0.003857435
48	0x3e880190	0.26563692
49	0x3da2e8d1	0.079545625
50	0xbd8f569b	-0.069989406
51	0xbe610e5a	-0.21978131
52	0xbe12a57f	-0.14320944
53	0x3d1a8d1c	0.03773223
54	0xbdf14f16	-0.117826626
55	0x3e0ed462	0.13948205
56	0x3d127301	0.035754208
57	0x3e834a7b	0.25642762
58	0xbd9b2aa4	-0.075764924
59	0xbe945127	-0.28968164
60	0xbb84313f	-0.004034191
61	0x3d125b6a	0.03573171
62	0xbba03fc0	-0.004890412
63	0x3d725734	0.059165195
64	0x3eb1a925	0.3469936
65	0xbca901eb	-0.020630797
66	0x3e0345bb	0.12819569
67	0xbd821bc8	-0.06352955
68	0x3e810e49	0.2520621
69	0x3dad90f2	0.08474912
70	0xbd067d6e	-0.032834463
71	0xbea136d1	-0.31487134
72	0xbc2df2b3	-0.010616946
73	0xbdb6e86c	-0.0893105
74	0xbe1bba43	-0.15207772
75	0x3e559742	0.20858482
76	0xbdc6c3af	-0.097052924
77	0xbe8033af	-0.2503943
78	0x3d227efc	0.039671883
79	0x3dc0a7d8	0.09407014
80	0x3eb0ae90	0.3450818
81	0xbe1b6f75	-0.15179236
82	0x3ca8b264	0.020592876
83	0xbdb074a7	-0.08616
84	0x3deb3988	0.114855826
85	0x3d494733	0.049140166
86	0xbe88bb31	-0.26705316
87	0xbe7a7305	-0.24457939
88	0x3b21bd1f	0.0024679375
89	0x3dd80712	0.105482236
90	0xbd43ce15	-0.047803957
91	0xbd814faf	-0.063140266
92	0xbddb7264	-0.10715178
93	0xbe2df74e	-0.1698887
94	0x3e54a8ba	0.20767489
95	0x3d8f692b	0.07002481
96	0xbeaba4f7	-0.33524296
97	0xbdff8e21	-0.12478281
98	0xbe789a70	-0.24277663
99	0xbd82653a	-0.06366964
100	0xbd559d73	-0.05215211
101	0x3e1f3095	0.15545876
102	0x3d70a649	0.058752332
103	0xbd8b3670	-0.067974925
104	0xbe9f7736	-0.31145638
105	0xbd9321b5	-0.071841635
106	0x3e3d943b	0.18513577
107	0x3cddbef1	0.027068587
108	0x3dd20a71	0.10255898
109	0xbdf9388b	-0.12168988
110	0xbd26e3f9	-0.040744755
111	0x3e435f30	0.1907928
112	0xbdc0133f	-0.09378671
113	0xbd9ccd22	-0.076563135
114	0xbde6dcd3	-0.112725876
115	0xbe4209db	-0.18949072
116	0x3d47a6b5	0.04874297
117	0xbd2a198c	-0.04152827
118	0xbda1dcf1	-0.07903469
119	0xbdb2236d	-0.08698163
120	0x3cd581b8	0.026062831
121	0x3e95b1da	0.29237252
122	0x3d9cbaf6	0.076528475
123	0x3ce823e1	0.02833742
124	0x3da21f79	0.07916159
125	0xbe3230c7	-0.1740142
126	0xbc2c0aa5	-0.010500585
127	0x3d15824f	0.036501225
128	0x3d03957b	0.032124978
129	0x3e8f02b1	0.2793174
130	0x3e6d2adb	0.2316088
131	0xbe15da00	-0.14633942
132	0xbe1de7d3	-0.15420465
133	0x3cad24c0	0.021135688
134	0xbe52e8b3	-0.2059658
135	0x3e55dacf	0.2088425
136	0x3c11477e	0.008867143
137	0x3e093b1f	0.13401459
138	0x3de3ca0e	0.11122523
139	0x3d3fad2c	0.04679601
140	0xbddfcbeb	-0.10927566
141	0xbc4973df	-0.012295692
142	0xbe89ecea	-0.26938564
143	0x3e4f1230	0.20221782
144	0xbe89dbd9	-0.26925543
145	0xbd456677	-0.04819342
146	0xbe1d306b	-0.15350501
147	0xbcf1f7c1	-0.029537084
148	0x3da617f5	0.08110038
149	0xbc5e273a	-0.013559157
150	0xbd41f0c3	-0.04734875
151	0xbd240795	-0.040046293
152	0x3d681c09	0.05666736
153	0xbe789c9a	-0.24278489
154	0x3e0d3105	0.1378823
155	0x3eba526d	0.3639101
156	0xbe090c86	-0.13383684
157	0x3da2a33e	0.07941292
158	0x3ce28645	0.027651915
159	0xbde5801d	-0.11206076
160	0x3d8bed72	0.068323985
161	0xbdddf805	-0.108383216
162	0x3e94ef30	0.29088736
163	0x3e0dd5d9	0.13851108
164	0xbd295e6d	-0.041349817
165	0x3db8a435	0.09015695
166	0xbd066a2e	-0.032816105
167	0xbdf87579	-0.12131781
168	0xbd1f4f9b	-0.038894277
169	0xbdabb27a	-0.08383651
170	0x3e46a316	0.1939815
171	0xbdd97e93	-0.10619845
172	0x3d5748fe	0.052559845
173	0xbd9759c3	-0.073901676
174	0x3e5f6dc6	0.21819219
175	0x3e4de2d1	0.20106055
176	0xbdfe296d	-0.12410245
177	0x3c57fb88	0.013182528
178	0xbe29bd0f	-0.16576026
179	0x3dec37e1	0.115340956
180	0xbd8eb39d	-0.06967852
181	0xbcb94d8f	-0.02261999
182	0xbe3e91fa	-0.18610373
183	0x3d218854	0.039436653
184	0xbdb68128	-0.08911353
185	0x3e019b0c	0.12656802
186	0x3ec2f3d2	0.38076645
187	0xbd880aa4	-0.066426545
188	0xbef13e3a	-0.47117788
189	0x3e493219	0.19648017
190	0xbe409f9c	-0.18810886
191	0xbd6c7fd3	-0.05773909
192	0xbeaad6ea	-0.3336709
193	0xbe6b2a81	-0.22965433
194	0xbd217d8e	-0.03942638
195	0x3e6f8831	0.23391797
196	0xbe2c0d42	-0.16801932
197	0xbd685f77	-0.056731667
198	0xbe9116ad	-0.28337613
199	0x3d84eb32	0.064901724
200	0xbe7cdce9	-0.24693646
201	0xbe8e290d	-0.27765694
202	0xbe89a54a	-0.26883918
203	0x3e1831f3	0.14862804
204	0xbda60bdc	-0.08107731
205	0xbdd240e9	-0.10266287
206	0xbe557c88	-0.20848286
207	0x3eef3a06	0.46723956
208	0x3e839a5f	0.25703713
209	0x3dd2b33e	0.10288094
210	0x3e3ba797	0.18325649
211	0x3d7a9874	0.061180547
212	0xbcff6cb5	-0.031179765
213	0x3ea5c44a	0.3237632
214	0xbd66b739	-0.05632708
215	0x3d3fc8de	0.04682242
216	0x3d5b3b3a	0.05352328
217	0xbdaee1a2	-0.0853913
218	0xbe05e01d	-0.13073774
219	0xbd05c231	-0.0326559
220	0xbc849508	-0.016184345
221	0x3d54e7f4	0.05197902
222	0x3e4215c0	0.1895361
223	0x3d8ef371	0.069800265
224	0xbe1d5b98	-0.15366971
225	0x3d88a830	0.06672704
226	0xbd99a8f5	-0.07502929
227	0x3d6d7c14	0.05797966
228	0x3ccf0288	0.025269762
229	0xbe18f10a	-0.14935699
230	0x3e65dfec	0.224487
231	0xbd7c8698	-0.061651796
232	0xbd256d9b	-0.04038773
233	0xbe44fae0	-0.19236326
234	0xbd3efba9	-0.04662672
235	0xbe5f1e00	-0.21788788
236	0xbd8ef921	-0.06981111
237	0x3d994565	0.07483939
238	0xbc7cf082	-0.015438201
239	0xbd9f7a57	-0.07787006
240	0x3dd848dc	0.10560772
241	0x3db5101f	0.088409655
242	0xbdf7cfdf	-0.12100195
243	0x3e170535	0.1474808
244	0x3d046929	0.03232685
245	0xbd8cabb6	-0.06868689
246	0x3e786c6d	0.24260111
247	0xbe4f1e97	-0.20226513
248	0x3e39a51b	0.18129389
249	0x3dd456d5	0.103681244
250	0x3e64eb58	0.22355402
251	0x3d944ba5	0.072409905
252	0xbe33a725	-0.1754423
253	0xbde875e8	-0.11350614
254	0xbe0f657e	-0.1400356
255	0xbe0fab8f	-0.14030288

projm.bias f4 [384]
0	0x3e721f68	0.23644793
1	0x3c283567	0.010266638
2	0x3e1cde77	0.15319239
3	0x3cd3e0e6	0.025864076
4	0xbe4ff336	-0.20307621
5	0x3e62e608	0.22158062
6	0x3d901b74	0.07036486
7	0xba65b2df	-0.00087623106
8	0xbba122ee	-0.004917494
9	0xbe8a8bbd	-0.27059737
10	0x3e445921	0.19174625
11	0xba91f48e	-0.0011135505
12	0x3de5849a	0.11206932
13	0xbded7c77	-0.115960054
14	0xbd8784d9	-0.066171356
15	0xbdfcd683	-0.12345602
16	0x3be6a02d	0.0070381374
17	0x3e478ad9	0.1948656
18	0xbe0544da	-0.13014546
19	0x3e0ab925	0.1354719
20	0xbb4f2c54	-0.0031612115
21	0x3e8e00ea	0.27735072
22	0x3e45ed60	0.19328833
23	0xbe645533	-0.22298126
24	0xbd9ea317	-0.07745951
25	0x3d8822a8	0.06647235
26	0x3d975940	0.0739007
27	0xbb629c8c	-0.0034578172
28	0xbde654bd	-0.11246631
29	0x3d391294	0.045183733
30	0xbd8a652d	-0.06757579
31	0x3e2a8691	0.16652896
32	0x3e18203a	0.14856043
33	0xbe5a9267	-0.2134491
34	0xbd84c1ab	-0.06482252
35	0x3dd182a8	0.10229999
36	0x3b2b4fce	0.0026140097
37	0xbd09d042	-0.033645876
38	0xbda49331	-0.08035887
39	0x3db7a040	0.08966112
40	0xbe563ab5	-0.20920832
41	0xbe212165	-0.15735395
42	0xbe7f3042	-0.24920753
43	0x3de49811	0.11161817
44	0x3e48edb2	0.19621924
45	0x3e4a501e	0.19757125
46	0x3e94cbf4	0.29061854
47	0xbe56e22d	-0.20984717
48	0xbe39a3c1	-0.18128873
49	0x3bcff5f3	0.006346458
50	0x3cf62298	0.030045792
51	0x3d82ef36	0.06393282
52	0x3e6114e3	0.21980624
53	0x3dff71a5	0.12472848
54	0x3e7530ad	0.2394435
55	0x3e0dabd0	0.13835073
56	0x3bb863ff	0.005627155
57	0x3d6852a1	0.056719426
58	0x3e4a822f	0.19776224
59	0x3e49c6fd	0.19704814
60	0x3b253e51	0.0025214145
61	0xbda72f7c	-0.08163354
62	0x3db065ae	0.08613144
63	0xb8622bd6	-5.3923424e-05
64	0xbd897cbc	-0.06713244
65	0x3a88de79	0.0010442279
66	0xbe3da96d	-0.18521662
67	0x3e4b9f71	0.19885041
68	0x3e611415	0.21980317
69	0xbe99132f	-0.29897448
70	0x3b68ccf0	0.0035522543
71	0xb9b68ab6	-0.00034817093
72	0xbe1d2925	-0.15347727
73	0xbc9cd203	-0.01914311
74	0x3defeefe	0.11715506
75	0x3e51d858	0.20492685
76	0x3e0c877a	0.13723555
77	0x3e13a547	0.14418517
78	0xbe1d15c3	-0.15340333
79	0xbdfe83e2	-0.124274984
80	0x3d98be8a	0.074582174
81	0xbd29001f	-0.04125988
82	0xbe4dcbe4	-0.2009731
83	0x3e99be34	0.30027926
84	0x3e41159d	0.18855901
85	0x3b1d9f8f	0.0024051403
86	0x3d77985c	0.060448036
87	0xbe3126d5	-0.1729997
88	0x3ebebc69	0.3725312
89	0xbe2d8925	-0.16946848
90	0xbe43df21	-0.19128086
91	0x3dc7dc1e	0.09758781
92	0xbe2354f0	-0.1595037
93	0x3e32883a	0.17434779
94	0xbeb311db	-0.3497456
95	0xbe1a1de4	-0.15050465
96	0x3e33d8d8	0.17563188
97	0x3e09cdaa	0.13457361
98	0xb9942559	-0.00028256586
99	0xbbecb417	-0.007223617
100	0x3e564df5	0.20928176
101	0x3e199d97	0.15001522
102	0xbdb8c2ca	-0.09021528
103	0x3e8742e1	0.26418212
104	0x3d7e1692	0.062033243
105	0x3ad6adf2	0.0016378744
106	0xbe436550	-0.19081616
107	0xbd8bbb94	-0.06822887
108	0xbd972613	-0.07380309
109	0x3c5d6272	0.013512241
110	0xbe09e90e	-0.1346781
111	0xbe908f9c	-0.28234565
112	0xbe177a43	-0.14792733
113	0x3e9ac277	0.3022649
114	0x3eb20bb1	0.34774545
115	0xbe2dbc06	-0.16966256
116	0x3cc760a0	0.024338067
117	0x3e2dc261	0.16968681
118	0xbdd5f533	-0.10447159
119	0x3e7afbf9	0.24510182
120	0x3e6b21f3	0.2296217
121	0xbe8cf0df	-0.2752752
122	0x3dc76dab	0.097377144
123	0xbd8b5602	-0.06803514
124	0xbe9125b1	-0.2834907
125	0xbdbbfd84	-0.09179214
126	0xbe2b217f	-0.16711996
127	0x3e14bc93	0.1452506
128	0xbe4a78a5	-0.19772585
129	0x3e1b5ade	0.15171382
130	0xbbcc5dd8	-0.006236773
131	0x3e3a9b27	0.18223248
132	0xbe86c836	-0.26324624
133	0x3c99b786	0.018764269
134	0xbe4c9a2b	-0.19980685
135	0x3e202801	0.1564026
136	0x3daa80a4	0.083253175
137	0x3e4fb1e2	0.202827
138	0xbe0192be	-0.12653634
139	0x3e30c04b	0.17260854
140	0xbe288bbe	-0.16459557
141	0xbe00d1c9	-0.12580027
142	0xbe0a6977	-0.13516794
143	0x3e50af64	0.20379406
144	0xbeeb394b	-0.4594215
145	0xbe534ba3	-0.20634322
146	0xbe2eaace	-0.17057344
147	0x3e6f1f3f	0.23351763
148	0x3a62fb3c	0.00086586527
149	0xbe4b467b	-0.19851105
150	0xbe913843	-0.28363237
151	0xbe425c6b	-0.18980567
152	0xbdd7e453	-0.10541596
153	0x3e852c11	0.26010182
154	0x3e87e368	0.26540685
155	0x3e77f91d	0.24216123
156	0xbe4da220	-0.20081377
157	0x3e157974	0.14597112
158	0xbe8bda06	-0.27314776
159	0xbd8ca9d5	-0.068683304
160	0x3ecd528c	0.4010204
161	0x3e709a57	0.23496376
162	0x3da19c60	0.07891154
163	0x3dc642e1	0.09680725
164	0xbea3b0d7	-0.31970856
165	0x3e1a8ae7	0.1509205
166	0xbd4e5f1e	-0.05038368
167	0x3e80ac70	0.2513156
168	0x3e2f3b34	0.17112428
169	0xbe1b9b17	-0.15195881
170	0x3e7f7726	0.24947795
171	0x3e18ce57	0.14922462
172	0x3dbe254a	0.09284456
173	0x3bdc0acb	0.006715154
174	0x3dbcf8b7	0.09227126
175	0x3de595f6	0.112102434
176	0xbe64191a	-0.222752
177	0x3cc5b90d	0.02413609
178	0x3c8db343	0.017297393
179	0xbd854bec	-0.065086216
180	0xbe027bd1	-0.12742545
181	0x3e8825ad	0.26591244
182	0xbe49f1af	-0.19721101
183	0xbe5a91df	-0.21344708
184	0xbae375d9	-0.0017353847
185	0xbe1a2dae	-0.15056488
186	0x3e791381	0.24323846
187	0x3e9375d2	0.28800827
188	0xbe2d257a	-0.16908827
189	0x3c3cf97a	0.011534089
190	0x3bbd89c2	0.0057842443
191	0x3e0f2a1c	0.13980907
192	0xba765e2b	-0.00093981874
193	0xbe16996e	-0.14706966
194	0xbe778ded	-0.24175234
195	0xbe76675c	-0.24062866
196	0xbd81a909	-0.06331069
197	0x3dd89bb4	0.10576573
198	0x3c145769	0.009054043
199	0x3d093a38	0.033502787
200	0x3e718419	0.23585548
201	0x3e563b4c	0.20921057
202	0x3a16a970	0.0005747294
203	0x3b30fa40	0.002700463
204	0xbe04fa00	-0.12985992
205	0x3befae26	0.0073144613
206	0x3db91965	0.09038047
207	0xbdc66066	-0.09686355
208	0xbb800e54	-0.003907958
209	0x3ee142e0	0.43996334
210	0x3e2ec284	0.1706639
211	0x3dc65953	0.09685006
212	0x3b340005	0.0027465832
213	0x3d12af5e	0.035811774
214	0xbe1850f8	-0.14874637
215	0xbe2d632e	-0.16932365
216	0x3e5482c0	0.20753002
217	0xbe6d5325	-0.23176248
218	0x3d83d105	0.06436352
219	0xbb29dc13	-0.0025918528
220	0x3e70c1e6	0.23511466
221	0xbe6cf4dc	-0.23140281
222	0xbe237553	-0.15962724
223	0x3b0de436	0.0021650917
224	0x3e00bd41	0.12572195
225	0xbcc3dbe2	-0.02390856
226	0xbe00a4cf	-0.1256287
227	0x3eedc646	0.46440333
228	0xbdee16c8	-0.11625439
229	0xbcb0094f	-0.021488814
230	0x3e8e9af7	0.27852604
231	0xbe2ed307	-0.17072688
232	0xbe1b2787	-0.15151797
233	0x3e6c2ee4	0.23064762
234	0x3ca60a88	0.020268694
235	0x3ea2ed11	0.31821492
236	0x3d9fd075	0.07803432
237	0x3cd12bd9	0.025533604
238	0xbe098b0c	-0.13431948
239	0x3cda6cec	0.026663266
240	0x3e99b5a8	0.30021405
241	0xbe709abb	-0.23496525
242	0x3bc6a319	0.006061923
243	0x3d1df6de	0.03856551
244	0x3ba1f08c	0.0049420055
245	0x3b56c73e	0.0032772566
246	0x38801e8f	6.1092076e-05
247	0x3ed28a31	0.41121057
248	0xbe4636ea	-0.19356886
249	0x3e9369b5	0.28791586
250	0xbe596cb3	-0.21232872
251	0xbe68a584	-0.22719389
252	0x3e8a2ca0	0.2698717
253	0x3dcec6e4	0.10096529
254	0x3e476d7b	0.19475357
255	0x3d7f8e29	0.062391434
