checkpoints/panpeptide_AAidpos.pt (torch, 508798 bytes, 48 tensors)

embeddings.weight f4 [21, 21]
0	0x00000000	0.0
1	0x00000000	0.0
2	0x00000000	0.0
3	0x00000000	0.0
4	0x00000000	0.0
5	0x00000000	0.0
6	0x00000000	0.0
7	0x00000000	0.0
8	0x00000000	0.0
9	0x00000000	0.0
10	0x00000000	0.0
11	0x00000000	0.0
12	0x00000000	0.0
13	0x00000000	0.0
14	0x00000000	0.0
15	0x00000000	0.0
16	0x00000000	0.0
17	0x00000000	0.0
18	0x00000000	0.0
19	0x00000000	0.0
20	0x00000000	0.0
21	0xbef57a94	-0.47945082
22	0x3f3e5a5a	0.74356616
23	0x3f12512f	0.57155126
24	0x3f174468	0.59088755
25	0xbf092ffe	-0.53588855
26	0x3f2b0c88	0.66815996
27	0xbf2ba648	-0.670506
28	0xbfa75c4c	-1.3075042
29	0xbf35dce1	-0.7104016
30	0xbfe94b04	-1.8226018
31	0xbe257abb	-0.16160099
32	0x3ea1a787	0.31573126
33	0xbff40c8a	-1.9066327
34	0x3e8ac14d	0.27100602
35	0x3e65f5e3	0.2245708
36	0x3f93c38d	1.1544052
37	0xbf92b530	-1.1461544
38	0xbe57dd46	-0.21080503
39	0xbb0cbaac	-0.002147357
40	0x3ee50266	0.44728392
41	0x3db147bc	0.0865626
42	0xbf363a1c	-0.7118242
43	0xbe778f26	-0.241757
44	0xc04e4ea4	-3.2235498
45	0x3e7d976c	0.24764794
46	0x3fee7f2a	1.8632557
47	0xbf64d6cf	-0.8939027
48	0x3e39733a	0.18110362
49	0x3fac4fbc	1.3461833
50	0x3f6b33dc	0.91876006
51	0xbe8941ce	-0.26808017
52	0xbf51ad5f	-0.8190517
53	0xbe4aea7c	-0.19816011
54	0xbf5f2115	-0.87159854
55	0x3e8149cb	0.25251612
56	0x3f852355	1.0401407
57	0x3f185033	0.59497374
58	0xc01effad	-2.4843552
59	0xbee8c1bd	-0.4546031
60	0xbf6b0500	-0.91804504
61	0x3dfda42c	0.12384829
62	0xbe59ef9e	-0.21282813
63	0x3f6de171	0.9292212
64	0xbf0b87b2	-0.5450393
65	0xbe0b8a31	-0.13626935
66	0x3fce7cb2	1.6131804
67	0x3fe5eef3	1.7963547
68	0x3e661c2c	0.22471684
69	0x3fd6739d	1.6754032
70	0xbe8c55cb	-0.27409205
71	0x3f27714a	0.6540724
72	0x3e8e43ac	0.27786005
73	0x3f9a4274	1.205153
74	0xbf9398fe	-1.1531065
75	0x3e46af97	0.1940292
76	0xbf0f83e0	-0.560606
77	0x3f31b17b	0.6941144
78	0xbf86cb34	-1.0530763
79	0xbf004a75	-0.5011361
80	0x3fa76d55	1.308024
81	0x3f792e8b	0.97336644
82	0xc007eedf	-2.1239545
83	0xbe9293c8	-0.28628373
84	0x40140ec5	2.3134015
85	0xbeeb109a	-0.45911103
86	0xbf391891	-0.7230311
87	0xbfd80977	-1.6877888
88	0xbfaa40ae	-1.3300989
89	0x3f2fe30e	0.6870583
90	0xbf13287e	-0.5748366
91	0x3e8ccc4a	0.2749961
92	0xbf874cf0	-1.0570354
93	0x3f9b25e0	1.2120934
94	0xbf95d676	-1.1706073
95	0xbf36cdb3	-0.7140762
96	0x4013073d	2.2973168
97	0x3fd8256a	1.6886418
98	0x3d37169f	0.044699308
99	0x3e902c6f	0.281589
100	0xbff2c2a1	-1.8965646
101	0xc0147e12	-2.3201947
102	0xbf6e201c	-0.93017745
103	0xbf5bedc8	-0.859097
104	0x3ffa35c2	1.9547656
105	0xbf8583b0	-1.0430813
106	0x3fdf3afa	1.7439873
107	0x3f9e7c33	1.2381653
108	0x3f1b9663	0.60776347
109	0xbfa35c63	-1.2762569
110	0xbf205d52	-0.62642395
111	0xbf0b54ad	-0.5442608
112	0x4002867a	2.0394578
113	0xbef548d8	-0.47907138
114	0x3f04bafd	0.5184782
115	0xbeea9986	-0.45820254
116	0xbf77f029	-0.9685083
117	0xbf4b178b	-0.793328
118	0x3f8aae93	1.0834526
119	0x3fd8f1b6	1.6948764
120	0x3e8dfa12	0.2772985
121	0xbe98f63e	-0.29875368
122	0x3f071941	0.5277291
123	0x3f5d6307	0.8647923
124	0x3ea949be	0.33064073
125	0x3f8a6b28	1.0813951
126	0xbe590ee6	-0.2119709
127	0x3eaf13d6	0.3419482
128	0x3f27e27d	0.6557997
129	0x404659cb	3.0992305
130	0x3df324b4	0.11872235
131	0xbf388f14	-0.7209332
132	0x3f81e05f	1.0146598
133	0x3eaaf6ed	0.33391514
134	0xbfe6db03	-1.8035587
135	0x3ff136ca	1.8844845
136	0x3e6830bf	0.22674845
137	0x3debe0e5	0.115175046
138	0x3fa1a742	1.2629168
139	0xbf9346f8	-1.1506033
140	0xbf1301cc	-0.57424617
141	0xbfa88f7b	-1.3168787
142	0xbe13826e	-0.14405224
143	0x3f8aa929	1.0832874
144	0xbefeed7b	-0.49790558
145	0x3f843b28	1.0330553
146	0xbf439c05	-0.7640994
147	0x3fc146b6	1.5099704
148	0x3ec840b0	0.39111853
149	0xbf2bc6be	-0.6710013
150	0x3f3e5d2c	0.7436092
151	0x3fadbdc4	1.3573537
152	0xbf6ec6b8	-0.9327197
153	0xbfa4d0da	-1.2876236
154	0x3f1b54dd	0.60676366
155	0xbf8e775f	-1.1130179
156	0xbe126a9d	-0.14298482
157	0xbd843cdb	-0.0645692
158	0xbfde2134	-1.7353883
159	0xbeef48cf	-0.46735236
160	0x3d994d2f	0.07485425
161	0x3f8185d3	1.0118965
162	0xbf30b906	-0.69032323
163	0x3f9c0428	1.2188768
164	0x3f99bd98	1.2010984
165	0x3fc4097f	1.5315398
166	0x3f4ed793	0.8079769
167	0x3f91ba30	1.1384945
168	0xbfea1f80	-1.8290863
169	0x3f6e6b8a	0.9313284
170	0xbf852a15	-1.0403467
171	0x3f8ef19f	1.1167487
172	0x3f22a5ac	0.63534045
173	0x40005811	2.0053751
174	0x3fb3c50d	1.404451
175	0x3f08d30e	0.53447044
176	0x3e002f83	0.12518124
177	0xbf983000	-1.1889648
178	0xbecc8754	-0.39946997
179	0xbfda9d0c	-1.7079177
180	0xbebf35bc	-0.37345684
181	0x3f0d01dd	0.5508097
182	0x3f8510db	1.0395769
183	0x3f3c6af2	0.73600686
184	0x3faa2956	1.3293865
185	0xbfb39207	-1.4028939
186	0x3e9d55ba	0.30729467
187	0xc0390502	-2.8909307
188	0xbfca582d	-1.5808159
189	0x3f237486	0.63849676
190	0x3f0525b4	0.52010655
191	0xbf806318	-1.0030241
192	0x400f4d70	2.2391014
193	0xbebc8c11	-0.36825612
194	0xc0188be5	-2.3835385
195	0xbf7de2de	-0.99174297
196	0xbfae5b9f	-1.362171
197	0x3fd4a80f	1.6613787
198	0x3f41b868	0.75672007
199	0xbfd9cf05	-1.7016302
200	0xbef4feff	-0.47850797
201	0xbdc72dd5	-0.09725539
202	0xbfcc1b67	-1.5945863
203	0x3f0aee83	0.5427019
204	0x3e75b47d	0.23994632
205	0xbf8e2a56	-1.110667
206	0x3fc86906	1.5657051
207	0xbf84ac45	-1.0365072
208	0xbf64986e	-0.8929509
209	0xbf825dbc	-1.0184855
210	0x3fd89dde	1.6923177
211	0xbc4a5118	-0.012348436
212	0x3f5acb9a	0.8546692
213	0x3ff94e2a	1.9476979
214	0x3fcbc72d	1.5920159
215	0x3f87e2c3	1.0616077
216	0xbec25d90	-0.37962008
217	0xbf1b86d0	-0.6075258
218	0x3dab92d0	0.08377612
219	0xbf8dd1c5	-1.1079642
220	0xbf7325dd	-0.9497965
221	0x4017e1f7	2.3731668
222	0x3e307ed1	0.17235877
223	0x3edf1996	0.43574208
224	0x3f61f640	0.8826637
225	0xbfede85b	-1.8586534
226	0x3f85f5a4	1.0465589
227	0x3f7bfa93	0.9842922
228	0xbfa5e0fb	-1.2959284
229	0xc019d357	-2.4035242
230	0xbf49dd25	-0.78853065
231	0x3f680823	0.90637416
232	0xbfbc238f	-1.4698352
233	0xbfe97aff	-1.824066
234	0x40072184	2.1114206
235	0x3dca2c1f	0.09871697
236	0x3e706976	0.2347773
237	0xbf96e66c	-1.1789069
238	0x3f133b2c	0.57512164
239	0xbf0d92e7	-0.5530228
240	0x3c71542f	0.014729544
241	0xbed8c47f	-0.42337415
242	0x3fac6281	1.3467561
243	0xbf912103	-1.1338199
244	0x3e5a4113	0.21313886
245	0xbf4c9976	-0.7992166
246	0xbf0d6b20	-0.55241585
247	0x3f98b605	1.1930548
248	0xbe93844d	-0.28811875
249	0x3fca1eb1	1.5790616
250	0xbfbcf8e0	-1.4763451
251	0xbf24c7cf	-0.64367384
252	0xbfaec5bf	-1.3654097
253	0xbee0a2d9	-0.43874243
254	0x3f8d3ef1	1.1034833
255	0x3f2dc31d	0.67875844

posenc.pos_emb.weight f4 [200, 21]
0	0xbf8593cd	-1.043573
1	0x3eca2b56	0.39486188
2	0xbdbcb2d4	-0.09213796
3	0xbf62f8ec	-0.88661075
4	0xbf79df45	-0.9760631
5	0x3d25a86a	0.040443815
6	0x3f3a3c9c	0.7274873
7	0x3ea49a06	0.3214876
8	0xbfaadd74	-1.3348832
9	0xbfb7e27b	-1.4365991
10	0xbf36798b	-0.7127921
11	0x3f1c2ed0	0.6100893
12	0x3fc1defc	1.5146174
13	0xbf851a6c	-1.0398688
14	0x3fc2e291	1.5225393
15	0xbf81865d	-1.011913
16	0xbf8054b7	-1.0025853
17	0xbed9670a	-0.42461425
18	0xbe2e1ed7	-0.17003952
19	0xbf80fe08	-1.0077524
20	0x3fc9aa86	1.5755165
21	0x3e18fdca	0.14940563
22	0xc005254f	-2.0804021
23	0xbf37f290	-0.71854496
24	0x3f98a393	1.1924919
25	0xbf9d6e22	-1.2299235
26	0xbd55ea0f	-0.05222517
27	0xbef26d6b	-0.47349104
28	0x3fd72bd6	1.6810253
29	0x3ec2fa43	0.3808156
30	0xbebbabd7	-0.3665454
31	0xbf92b035	-1.1460024
32	0xbf08e118	-0.53468466
33	0xbf0b70fe	-0.5446929
34	0x3f7b6035	0.98193675
35	0x3fb23c6c	1.3924689
36	0xbf8380af	-1.0273646
37	0x3ec6a086	0.38794345
38	0xc011d9a9	-2.27891
39	0xbe9193d0	-0.28433084
40	0x3e56ba9d	0.20969625
41	0x3e73c647	0.23806106
42	0x3ef8ec42	0.4861775
43	0x3eb8f747	0.36126158
44	0x3f907a97	1.1287411
45	0xbf0ab88d	-0.5418785
46	0xbea7bbed	-0.32760563
47	0xbf26affa	-0.6511227
48	0xbf645145	-0.8918651
49	0x3f180f25	0.5939811
50	0xbeeff258	-0.4686458
51	0xbf6e29ee	-0.9303273
52	0x3fb935bf	1.4469527
53	0x3e463a89	0.19358267
54	0xbf9b983e	-1.2155836
55	0xbf95514f	-1.1665438
56	0xbfa9a6c6	-1.325402
57	0xbf38a7c3	-0.72130984
58	0xbe8602cb	-0.26174006
59	0xbeafd2a0	-0.34340382
60	0xbf4d22a8	-0.80131006
61	0xbe001fbb	-0.12512104
62	0x3fa09ebd	1.2548443
63	0x3ef512ac	0.47865808
64	0x3fc6b63a	1.5524361
65	0xbf479430	-0.7796049
66	0x3f89099a	1.0706055
67	0xbfebc420	-1.8419228
68	0x3ef929af	0.48664615
69	0xbf96b0ad	-1.1772667
70	0x3fbbf3d9	1.4683791
71	0x3fb42629	1.4074146
72	0x3ffea352	1.9893591
73	0x3e9b9a9f	0.30391404
74	0xbdb8587b	-0.09001251
75	0xbf0e199a	-0.55507815
76	0x3f479902	0.77967846
77	0x3f299c3b	0.66254014
78	0xbf143a23	-0.5790121
79	0xbf8524c7	-1.0401849
80	0xbe3cbf2a	-0.18432298
81	0x3f9fc6ba	1.2482522
82	0x3edddeeb	0.43334135
83	0xbfbc8d25	-1.4730574
84	0x3f9f0a8a	1.2425091
85	0xbf011d93	-0.5043575
86	0x3fe3aa85	1.7786413
87	0xbef143dc	-0.47122085
88	0x3fce2257	1.610423
89	0xbf8326bb	-1.0246195
90	0x3fe0718e	1.7534654
91	0xbf387aaa	-0.7206217
92	0x3f87f956	1.0622966
93	0xbf076f67	-0.5290436
94	0xbfe8e105	-1.819367
95	0x3f5d2f1f	0.86400026
96	0xbf54a41d	-0.83062917
97	0x3e03dae9	0.12876476
98	0x3f065f90	0.52489567
99	0xbef1de71	-0.47240022
100	0xbf5fe77c	-0.8746259
101	0xbfef5b63	-1.8699764
102	0xbdfe90aa	-0.12429936
103	0xbe20d5c4	-0.15706545
104	0xbf51a90b	-0.81898564
105	0x3fabfa02	1.3435671
106	0x3f08b0f6	0.5339502
107	0xbf787573	-0.97054213
108	0xbf900f53	-1.1254677
109	0xbf96136c	-1.1724677
110	0xbf55cac9	-0.8351255
111	0xbc072540	-0.008248627
112	0xbf03755e	-0.51350963
113	0xbf122192	-0.57082474
114	0xbff65533	-1.9244751
115	0x3f09f062	0.5388242
116	0x3f203af1	0.6258994
117	0x3c868f26	0.01642568
118	0x3f35213c	0.70753837
119	0xbf410560	-0.75398827
120	0x3f1e8954	0.61928296
121	0xbf697031	-0.91186816
122	0xbfd39c60	-1.6532097
123	0x3de825b4	0.11335316
124	0x3f3bee6a	0.73410666
125	0xbfc113ac	-1.5084128
126	0xbeea6407	-0.4577944
127	0xbf6c412d	-0.9228695
128	0x3e4ccd57	0.20000206
129	0xc02a14e0	-2.657524
130	0xbdfc0f55	-0.12307612
131	0xbe891c42	-0.26779372
132	0xbd7eca84	-0.062204853
133	0xbf3a01a2	-0.7265874
134	0xbe1bb457	-0.15205513
135	0x3fc65894	1.5495782
136	0x3e93e5b6	0.28886193
137	0xbf87d2d4	-1.0611215
138	0xbf35e962	-0.7105924
139	0x3eb4df99	0.3532684
140	0x3f1e8d51	0.6193438
141	0x3f802fc6	1.0014579
142	0x3f43a317	0.7642073
143	0x3fa0fe86	1.2577674
144	0xbeee0e81	-0.4649544
145	0xbf717259	-0.94315106
146	0xbf45d31d	-0.7727526
147	0x3f1991d4	0.5998814
148	0xbf23f87d	-0.6405104
149	0xbfa260fa	-1.2685845
150	0xbed2fe3f	-0.412096
151	0x3f59974d	0.8499649
152	0x3fdba053	1.7158302
153	0x3f147403	0.5798952
154	0xbeca1683	-0.394703
155	0x3fbca262	1.4737055
156	0xc006d894	-2.1069689
157	0xbfcd67f8	-1.6047354
158	0xbe54acca	-0.20769039
159	0xbf1ca17d	-0.6118391
160	0x3f5c910b	0.8615882
161	0xbf959451	-1.1685888
162	0xbf868ba4	-1.0511365
163	0x3e699d8b	0.22814004
164	0xbe222dcf	-0.15837787
165	0xbf390776	-0.7227701
166	0xbf0ad040	-0.54224014
167	0x3fe91fa6	1.8212783
168	0x3f23dd62	0.6400968
169	0x3e580a58	0.21097696
170	0xbf48dc4c	-0.78461146
171	0xbfbf344e	-1.4937837
172	0xbe93d6e1	-0.28874877
173	0xbe49b737	-0.19698797
174	0x3f8d45a1	1.1036874
175	0xbeb16188	-0.34644723
176	0xbf7d6333	-0.9897949
177	0xbe02fa4f	-0.12790798
178	0x3fc32613	1.5245994
179	0x3e2b1a3c	0.16709226
180	0xbe0a33cf	-0.13496326
181	0xbfad9d81	-1.3563691
182	0x3f1f7507	0.62287945
183	0xbdb327bb	-0.08747812
184	0x40026049	2.0371268
185	0xbf8ebd2b	-1.115148
186	0xbf53d959	-0.8275352
187	0x3f87935b	1.0591844
188	0x3f0a6613	0.54062
189	0xbff1ac62	-1.8880732
190	0x3fab9f05	1.3407904
191	0x3e63046e	0.22169659
192	0xbeecffc7	-0.46288893
193	0x3f8b7bb3	1.0897125
194	0x401146fb	2.2699573
195	0x3ea78b8a	0.32723647
196	0xbdd208cb	-0.102555834
197	0xbeab226c	-0.334247
198	0x4007fb1e	2.124702
199	0xbfa60c2a	-1.2972462
200	0x3f8a7c6d	1.0819222
201	0xbef757da	-0.48309213
202	0x3f222707	0.633408
203	0xbefbbfbf	-0.49169728
204	0x3e69a0dc	0.22815269
205	0x3c1e4b21	0.009661467
206	0xbf2271b1	-0.6345473
207	0x3fb32c67	1.3997926
208	0xbf41fd40	-0.75777054
209	0xbf01b7aa	-0.50670874
210	0xbee7f546	-0.45304316
211	0x3f17532a	0.59111273
212	0x3f22f131	0.6364928
213	0x3e9106eb	0.2832559
214	0x3f1262bd	0.5718191
215	0x3f8770e4	1.0581326
216	0xbea89c75	-0.32931867
217	0xbf97be8c	-1.1855025
218	0x3e13b30f	0.14423774
219	0xbf118a43	-0.56851596
220	0xbe21f60e	-0.15816519
221	0xbf8c4713	-1.095919
222	0x3fb69196	1.4263179
223	0xbf58e387	-0.8472218
224	0xbf3df51b	-0.74202126
225	0x400e83da	2.2267976
226	0x3ef2211e	0.4729089
227	0xbf7b2915	-0.9810956
228	0x3f491cf3	0.785598
229	0x3f630395	0.8867734
230	0x3f2a604d	0.66553193
231	0xbfbef645	-1.4918905
232	0x3ff36370	1.9014721
233	0x3e929718	0.286309
234	0x3e88e9b5	0.26740804
235	0x3f2553e4	0.6458113
236	0xbf0b4509	-0.54402214
237	0x3f3e74c2	0.7439691
238	0x3fc58279	1.5430442
239	0x3f1c6398	0.6108947
240	0x3f446fcc	0.7673309
241	0xbfbdf10e	-1.4839189
242	0xc00a0121	-2.156319
243	0xbfee9230	-1.8638363
244	0x3eafe599	0.34354857
245	0xbff42637	-1.9074162
246	0x3f43bf3c	0.76463675
247	0xbf0cc1af	-0.5498304
248	0x3f62d1fe	0.8860167
249	0x3f8aea3c	1.0852733
250	0x3eba660c	0.3640598
251	0xbe74db7c	-0.23911852
252	0xbfa8866d	-1.3166023
253	0x3fa993d8	1.3248243
254	0x3f9fe1f9	1.2490836
255	0x3f6e22cb	0.9302184

proja.weight f4 [384, 21]
0	0x3e171d1b	0.14757197
1	0x3e58613a	0.21130839
2	0x3e1005e6	0.1406475
3	0xbc6e0f8b	-0.014530073
4	0x3d2e1585	0.04250099
5	0x3e978477	0.2959325
6	0x3e01913f	0.12653063
7	0x3d94e2a3	0.0726979
8	0xbeb9c3c4	-0.3628217
9	0xbce8a508	-0.028399006
10	0x3ccf9fdc	0.025344782
11	0x3d1fb1a3	0.038987767
12	0x3e3064c0	0.17225933
13	0x3df7c601	0.12098313
14	0xbdf8d435	-0.1214985
15	0x3d40f437	0.0471079
16	0xbd73dd68	-0.05953732
17	0xbdf4f94f	-0.11961614
18	0x3e7f2bdf	0.24919079
19	0xbd0dd1ab	-0.034623783
20	0x3ccc4df6	0.024939518
21	0x3e6cd78a	0.23129097
22	0xbd35193b	-0.044213515
23	0x3e856569	0.26053932
24	0xbd76d14a	-0.060258187
25	0x3e5289c4	0.20560366
26	0x3b59ea97	0.0033251399
27	0xbe2c46fe	-0.16823956
28	0x3e3a87d9	0.18215884
29	0xbd3e2594	-0.046422556
30	0x3ba710a6	0.00509842
31	0x3daeea2a	0.08540757
32	0x3c45030c	0.012024652
33	0xbcf858e5	-0.030315826
34	0x3d583744	0.05278708
35	0x3e73e5c8	0.23818123
36	0x3e711cd8	0.2354616
37	0xbd07d95c	-0.033166274
38	0xbdb00c29	-0.08596069
39	0x3c7a32dd	0.015270916
40	0x3d4b1476	0.04958006
41	0x3ca740b2	0.020416591
42	0x3df1da3f	0.11809205
43	0x3e9a5c10	0.30148363
44	0xbe63a2f7	-0.22230135
45	0x3c47017c	0.01214635
46	0x3df639fc	0.120227784
47	0x3dbee0e2	0.09320237
48	0xbe4f4280	-0.20240211
49	0x3dfc6472	0.12323846
50	0xbecb5cc0	-0.397192
51	0x3c6e1244	0.014530722
52	0xbb96ff62	-0.0046080807
53	0xbea5f3f5	-0.32412687
54	0x3e949ef7	0.2902753
55	0x3e726853	0.23672609
56	0xbd7d2135	-0.061799247
57	0x3d559dab	0.052152317
58	0x3a0ae960	0.0005299058
59	0x3e3a85bf	0.18215083
60	0x3d110e22	0.03541387
61	0xbd219385	-0.039447326
62	0x3e943de1	0.2895346
63	0x3d7adc1c	0.06124507
64	0xbdc73557	-0.09726971
65	0xbdb3a0b5	-0.08770887
66	0x3d8e6fee	0.06954943
67	0xbe877de5	-0.26463237
68	0xbcae1723	-0.021251267
69	0xbd83bb29	-0.06432182
70	0xbda39692	-0.079877034
71	0x3da55e7b	0.08074661
72	0x3df7f0b5	0.12106458
73	0xbe4ff5fb	-0.20308678
74	0x3c51795a	0.01278528
75	0xbe0872dc	-0.13325065
76	0xbdb0d87b	-0.086350404
77	0x3e44a918	0.19205129
78	0x3ccd7cef	0.025083987
79	0x3e7e5bc1	0.24839689
80	0x3db56fcb	0.088592134
81	0xbdbaa423	-0.09113338
82	0xbca2eca5	-0.019888232
83	0x3e88a1f8	0.26686072
84	0xbd15d8f4	-0.036583856
85	0xbdd9d82c	-0.10636935
86	0xbdd649d5	-0.10463301
87	0x3e0ec92c	0.13943928
88	0xbb16d00c	-0.002301219
89	0xbd52464c	-0.05133657
90	0x3cc5332b	0.02407225
91	0x3df91701	0.12162591
92	0x3cde0292	0.027100835
93	0x3d85aacd	0.06526718
94	0x3d66528d	0.05623107
95	0x3b39895b	0.002831063
96	0xbd33c913	-0.04389293
97	0xbdab7330	-0.0837158
98	0xbe0c35f7	-0.13692461
99	0x3e2b3612	0.16719845
100	0xbd32722c	-0.043565914
101	0x3e3c743d	0.18403716
102	0xbe2cb3d5	-0.16865475
103	0x3dfa6636	0.122265264
104	0x3d4f0832	0.050544925
105	0xbdf3fae4	-0.11913088
106	0xbde5065b	-0.11182853
107	0xbd6fab2f	-0.058512863
108	0x3df5e8b3	0.120072745
109	0xbe41f21f	-0.18940018
110	0xbea1a39a	-0.3157013
111	0x3e48241f	0.19545029
112	0x3c65430a	0.013993034
113	0x3d3b6c3d	0.04575752
114	0xbd01e544	-0.031712785
115	0x3dcb6ff6	0.09933464
116	0x3d966960	0.073443174
117	0xbd8a0f1a	-0.06741162
118	0x3e3b3765	0.1828285
119	0xbddb3ff3	-0.10705557
120	0xbe5bbdd8	-0.21459138
121	0x3d668e21	0.05628789
122	0x3dadd71e	0.08488296
123	0xbe1c0756	-0.15237173
124	0xbd93238f	-0.07184517
125	0x3e512128	0.20422804
126	0xbd1b3444	-0.03789164
127	0xbcc1fbba	-0.023679603
128	0x3ccb4f20	0.024818003
129	0x3db2b4bb	0.08725878
130	0xbe264a5e	-0.16239306
131	0x3e70b658	0.23507059
132	0x3e2ae78c	0.1668989
133	0x3e020db0	0.12700534
134	0xbddfbcab	-0.109246574
135	0x3e1314a1	0.14363338
136	0x3cb54a58	0.022130176
137	0xbe08cf42	-0.13360313
138	0x3dc2885b	0.09498664
139	0x3d14f1c7	0.03636339
140	0x3c22b9b9	0.009931975
141	0x3cc44412	0.02395824
142	0xbd092bbe	-0.03348898
143	0x3d92cb39	0.07167668
144	0xbce89378	-0.028390631
145	0xbe20d56d	-0.15706415
146	0x3d88bd1a	0.06676693
147	0x3e9c448d	0.3052105
148	0x3ce5a8b0	0.028034538
149	0xbe5d8533	-0.21632843
150	0xbea48d53	-0.32139072
151	0xbddb6377	-0.10712331
152	0x3e8a163a	0.26970083
153	0x3e66ba4e	0.22532007
154	0xba1186dc	-0.00055514066
155	0x3df11888	0.11772257
156	0x3c04b22e	0.008099122
157	0x3e1bc97b	0.15213577
158	0xbe197750	-0.1498692
159	0xbe740e09	-0.23833479
160	0x3dd59304	0.10428432
161	0x3caad58e	0.020853784
162	0x3e8206cb	0.25395808
163	0x3e42c1fc	0.19019312
164	0xbd81075c	-0.06300232
165	0xbd1ec19c	-0.03875886
166	0x3eb38a99	0.3506668
167	0x3e45189e	0.19247672
168	0xbdf30da9	-0.1186784
169	0x3e5683ec	0.20948762
170	0xbdb1f68a	-0.08689602
171	0xbe58941b	-0.21150248
172	0x3e76d784	0.2410565
173	0xbcfdfab0	-0.031003326
174	0xbea8ffd6	-0.33007687
175	0xbbf94340	-0.007606894
176	0xbe146d98	-0.14494932
177	0xbe61bfdc	-0.22045845
178	0xbe05ed2c	-0.13078755
179	0x3e9a9371	0.30190614
180	0xbda692f3	-0.08133497
181	0xbc9d5208	-0.019204155
182	0x3e693437	0.22773825
183	0xbdc5377d	-0.09629724
184	0xbe39bb2a	-0.18137804
185	0x3dc12eea	0.09432776
186	0x3e423d85	0.1896878
187	0x3de64ffa	0.11245723
188	0xbe83efbc	-0.2576884
189	0x3e4af293	0.19819097
190	0x3df7e778	0.12104696
191	0xbc425437	-0.011860899
192	0xbdff25ad	-0.12458358
193	0x3d15e355	0.036593754
194	0xbdfaecf4	-0.122522265
195	0x3da1827f	0.07886218
196	0xbd866ffe	-0.065643296
197	0xbe045961	-0.1292472
198	0xbe812fc1	-0.25231746
199	0xbe29bde3	-0.16576342
200	0xbe38c67a	-0.18044463
201	0xbdeec109	-0.11657912
202	0x3de249a0	0.11049199
203	0x3cff4ef9	0.031165587
204	0x3dc3bf8a	0.095580176
205	0x3ad7f1f2	0.0016475304
206	0xbe9c0a57	-0.3047664
207	0xbd2ab58f	-0.041677054
208	0xbd285319	-0.041094873
209	0x3c8aba97	0.016934676
210	0x3e264e66	0.16240844
211	0x3d81d487	0.063393645
212	0xbe3e9e92	-0.18615177
213	0x3de72187	0.11285692
214	0x3e0c9423	0.13728385
215	0x3e55b5a2	0.20870069
216	0xbd93ede0	-0.072231054
217	0x3d29519a	0.041337587
218	0x3dcba36a	0.09943278
219	0x3e11f756	0.14254507
220	0x3e69175c	0.22762817
221	0x3de3c8c2	0.11122276
222	0xbd9ed9ba	-0.07756372
223	0x3d730fb9	0.059341166
224	0xbe8e1827	-0.27752802
225	0xbe06cb28	-0.13163435
226	0xbcce026f	-0.025147645
227	0x3e5f92e1	0.21833374
228	0x3d76fd9a	0.060300447
229	0x3ddce432	0.10785712
230	0xbd302d4e	-0.043011956
231	0x3e4abf6e	0.19799587
232	0x3e16ecf7	0.14738832
233	0x3d21fee7	0.039549734
234	0xbd0bbaca	-0.034113683
235	0x3d89f3ca	0.06735952
236	0x3e37ddcb	0.17955701
237	0xbde1dabe	-0.1102805
238	0x3cc62aa4	0.024190255
239	0xbe225fc1	-0.1585684
240	0x3d25adbe	0.040448897
241	0xbe5cc6d6	-0.21560225
242	0x3e0a428d	0.1350195
243	0xbd5bbb9e	-0.053645723
244	0x3e0b0e40	0.13579655
245	0xbe73637d	-0.2376842
246	0x3d75d99e	0.06002199
247	0xbb61b3b0	-0.0034439377
248	0xbd01f2fa	-0.03172586
249	0x3dbb33c1	0.09140731
250	0x3e49b1e4	0.19696766
251	0xbd857b6f	-0.06517684
252	0xbd4237bd	-0.047416437
253	0x3dfb2943	0.122637294
254	0x3e4b9c96	0.19883952
255	0xbde4dbef	-0.111747615

proja.bias f4 [384]
0	0xbe1f9f47	-0.15588103
1	0xbb0ebcb6	-0.002177996
2	0x3cdd9a8b	0.02705123
3	0x3b35b23c	0.0027724644
4	0x3dc25fba	0.09490915
5	0xbb12e281	-0.002241284
6	0x3e008329	0.12550034
7	0xb9331b1c	-0.0001708087
8	0xbda0ca36	-0.07851069
9	0x3922388d	0.00015470591
10	0xbd16e943	-0.03684355
11	0x3ddc86b8	0.10767883
12	0x3dc03205	0.093845405
13	0x3e55107a	0.20807067
14	0xbe717368	-0.2357918
15	0xbe001d9d	-0.12511297
16	0xbe5f5f0c	-0.21813601
17	0xbb9f1bf7	-0.0048556286
18	0xbb2c68a5	-0.002630749
19	0x3e155e8d	0.1458685
20	0xbc4f5a65	-0.012655829
21	0x3a8ca670	0.0010730755
22	0xbb15c9db	-0.002285591
23	0xbe0ee01c	-0.13952678
24	0xbe01d173	-0.12677555
25	0x3b385995	0.0028129567
26	0xbe319f4f	-0.17345928
27	0xbc3870f8	-0.011257403
28	0xba4e2a4a	-0.0007864578
29	0x3d5e8714	0.05432804
30	0xbded5f46	-0.115904376
31	0xba024c15	-0.00049704436
32	0x3d6c76c4	0.05773045
33	0x3dd1e761	0.1024921
34	0x3cb887a9	0.022525625
35	0x3eecced4	0.46251547
36	0x3e432d16	0.19060168
37	0x3e21b383	0.15791135
38	0x3a6b6a5f	0.0008980389
39	0x39f30dbe	0.0004635881
40	0xbb08bdbc	-0.0020865044
41	0x3e00b636	0.12569508
42	0xbd879d50	-0.06621802
43	0x3d3a87dc	0.04553972
44	0x3b01c01c	0.0019798344
45	0xbe2a643a	-0.16639796
46	0xbd6268a3	-0.05527557
47	0xbe817112	-0.25281578
48	0x3e3d39c1	0.18479063
49	0xb7b81649	-2.1944887e-05
50	0xbb43d874	-0.0029883655
51	0xbe188a41	-0.1489649
52	0x3b89dce6	0.0042072413
53	0xbb71189b	-0.0036788348
54	0xbaf90eb7	-0.0019001578
55	0x3af703c1	0.0018845723
56	0xbd492886	-0.04911091
57	0x3d799b4d	0.060939122
58	0x3e25c8d5	0.16189893
59	0xbb9f3ef5	-0.0048598
60	0xbaed565a	-0.00181074
61	0xb6f6d28e	-7.355883e-06
62	0xba7b3d0a	-0.00095839857
63	0xbcc6f57a	-0.024286974
64	0xb99659e3	-0.000286772
65	0x3e4027c1	0.18765165
66	0xbe366431	-0.17811657
67	0xba996f8a	-0.0011706215
68	0xbdafe095	-0.085877575
69	0xbe094651	-0.1340573
70	0xbda1cacc	-0.079000086
71	0x3beb77a7	0.0071858945
72	0xbe201bce	-0.15635607
73	0xba85c123	-0.0010204654
74	0xbba42a03	-0.005009891
75	0x3bc8b468	0.0061250217
76	0x3c4564a0	0.012047917
77	0xba82aa4d	-0.0009968966
78	0x3ab93527	0.001413022
79	0x3e55bb90	0.2087233
80	0x3d24ee04	0.040266052
81	0xbea01e92	-0.31273323
82	0x3e85d5b8	0.26139617
83	0xbe2da92e	-0.16959068
84	0x3aa1cb0a	0.0012343836
85	0x3c3c222b	0.011482756
86	0xbe1e82c9	-0.15479578
87	0x3db770e6	0.089570805
88	0x3b836553	0.0040098815
89	0x3db4da67	0.088307194
90	0xbaef2b28	-0.0018247114
91	0x3e2a1124	0.16608101
92	0xbe33deae	-0.17565414
93	0x3d01a32b	0.03164975
94	0xbbdcfe37	-0.006744172
95	0x3c633b80	0.013869166
96	0xba805f2d	-0.000979399
97	0xbbd4856e	-0.0064856326
98	0x3ab3b51c	0.0013710591
99	0xbe59de85	-0.2127629
100	0xbaee7499	-0.0018192708
101	0xbe7c1c6d	-0.24620219
102	0xbe09ccc3	-0.13457017
103	0xbadd3491	-0.0016876628
104	0x3a1899c7	0.00058212545
105	0x3d7db93d	0.061944235
106	0x3db4b98e	0.08824454
107	0x3d48def1	0.04904074
108	0xbd350b26	-0.044200085
109	0x3d38beda	0.045103885
110	0x3b71660f	0.0036834513
111	0x3d6cc541	0.057805303
112	0x3ca52dd6	0.020163458
113	0x3c696e23	0.01424745
114	0xba2de8ff	-0.00066341454
115	0xbe3731e2	-0.17890123
116	0x3a225989	0.00061931513
117	0xbb0417ac	-0.002015571
118	0xbbfbce8f	-0.007684536
119	0x3b269ef6	0.0025424338
120	0x3d6fa283	0.058504593
121	0x3da5282e	0.08064304
122	0xbb699560	-0.0035642013
123	0x3d2cc69d	0.0421816
124	0x3da2d719	0.07951183
125	0x3ddbb2ec	0.10727486
126	0x3e91b838	0.2846086
127	0xbab0b998	-0.0013483046
128	0x3e0d25a8	0.13783896
129	0xbbad738f	-0.0052933167
130	0x3e04b5c6	0.12959966
131	0x3c27c4f0	0.010239825
132	0xbb876bd2	-0.004132726
133	0xbb909d98	-0.004413318
134	0x3eac1266	0.33607787
135	0x3e04a5d9	0.12953891
136	0x3e6f0558	0.23341882
137	0x3a902168	0.0010996284
138	0x3cb7fa29	0.022458153
139	0xbd05a900	-0.032631874
140	0x3e08cb5e	0.13358828
141	0x3da75e66	0.08172302
142	0x3b09a856	0.0021004877
143	0xbd75bd41	-0.05999494
144	0x3ec4c17b	0.38428864
145	0x3de179e0	0.11009574
146	0x3b322b4d	0.0027186454
147	0xbe91c706	-0.28472155
148	0xbbe659f8	-0.007029768
149	0x3baed198	0.005335044
150	0x3b42d0fa	0.002972661
151	0xbbf8d88d	-0.0075941742
152	0xbde5b30b	-0.1121579
153	0xbe45a8b5	-0.19302638
154	0x3e14ea63	0.14542536
155	0x3c228f17	0.009921811
156	0xbd695a80	-0.056971073
157	0xbde9f89d	-0.11424372
158	0xbe90bd4c	-0.28269422
159	0x3c42f112	0.011898296
160	0x3e2f45f1	0.17116524
161	0xbdefa17f	-0.11700725
162	0xbc14bf36	-0.009078791
163	0x3dfb222a	0.12262376
164	0xbe3950c8	-0.18097222
165	0x3e6dbe2e	0.23217079
166	0x3e92de9f	0.2868547
167	0x3e508da8	0.20366538
168	0x3d869a46	0.06572394
169	0xbd11ba0d	-0.035577822
170	0xbc1d110b	-0.009586583
171	0x3afb901e	0.001919273
172	0x3d6b514c	0.057450578
173	0xbbb2b251	-0.005453386
174	0x3dbf824e	0.093510255
175	0x3e3c34f9	0.18379582
176	0x38641932	5.43829e-05
177	0xbc311e81	-0.010810495
178	0x3e536e0b	0.20647447
179	0xbb0305b7	-0.001999242
180	0xbaf93f4d	-0.0019016057
181	0x3b6b1754	0.003587206
182	0xbc8cae22	-0.017172877
183	0x3da1250d	0.07868395
184	0x39d0204a	0.0003969691
185	0xbe4ce5ab	-0.20009486
186	0x3ac81132	0.0015263914
187	0x3abe1644	0.0014502485
188	0xbdbf0e05	-0.09328846
189	0xbacc66ac	-0.0015594563
190	0x3dbc39ad	0.09190688
191	0x3b1df91f	0.0024104787
192	0xbd1b27d5	-0.037879784
193	0xbe587e86	-0.21142015
194	0xbc2a1bf5	-0.010382642
195	0x3a86c139	0.0010280974
196	0xbb659a1e	-0.0035034488
197	0x3b240c93	0.002503191
198	0xbda512ff	-0.08060264
199	0xbd79dfb6	-0.061004363
200	0x3e76bb74	0.24094945
201	0x3a43620d	0.00074532704
202	0xbdbdd380	-0.09268856
203	0x3b423477	0.0029633322
204	0x3cd77f18	0.02630572
205	0x3b23b44f	0.0024979298
206	0x3b6af646	0.0035852357
207	0xbdf26783	-0.118361495
208	0x3e0db6cb	0.13839261
209	0x3b140f4d	0.0022592128
210	0xbc06b59f	-0.008222013
211	0xbd8d6975	-0.0690488
212	0x3b3869b7	0.0028139183
213	0xbdf844be	-0.121224865
214	0x3dab3ae5	0.083608426
215	0x3b610545	0.0034335416
216	0x3b4a0fb6	0.0030832118
217	0x3bc7a7e8	0.006093014
218	0xbe18c414	-0.14918548
219	0x3dfde6ae	0.12397514
220	0x3db34ee7	0.08755284
221	0xbb1e3d2b	-0.0024145346
222	0x3d8c8f1d	0.06863234
223	0x3b4f2ca7	0.0031612308
224	0x3b7c1088	0.0038462002
225	0xbcb04898	-0.02151899
226	0xba7595a4	-0.00093683065
227	0x3da6ee78	0.08150953
228	0x3c041d8a	0.008063683
229	0x3b1ae44a	0.0023634606
230	0xbdd9ed40	-0.10640955
231	0xbb3a5a63	-0.0028435222
232	0xbe0b801e	-0.13623092
233	0xbd88bb35	-0.06676332
234	0x3e172771	0.1476114
235	0x3e115b13	0.14194898
236	0x3d811ee6	0.063047215
237	0x3d67022c	0.056398556
238	0xbb0e1b68	-0.0021683816
239	0xbdb2ef40	-0.087370396
240	0xba2a7084	-0.00065017515
241	0x3b087f46	0.0020827814
242	0x3cdf5179	0.027260529
243	0xbacec1d5	-0.0015774319
244	0xbd8b33b1	-0.06796969
245	0x3b52edbb	0.0032185155
246	0x3b554975	0.0032545005
247	0x3d4a1e1a	0.049345113
248	0x3dcb7c7c	0.09935853
249	0xbe66e1ff	-0.22547148
250	0x3abd4e16	0.0014442827
251	0x3c81acb7	0.015829427
252	0x3c5af07a	0.013362998
253	0xbb85df0a	-0.004085426
254	0x3e006d62	0.12541726
255	0x3d6fa9d0	0.058511555

projp.weight f4 [384, 21]
0	0xbe9514a2	-0.29117304
1	0xbe52f243	-0.20600228
2	0xbc98fa12	-0.01867393
3	0x3eb82f39	0.35973528
4	0x3e06a9b3	0.13150673
5	0x3d9527b6	0.07282965
6	0xbd8bb41b	-0.06821462
7	0x3cbf4327	0.02334745
8	0x3defebc6	0.11714892
9	0xbe857776	-0.26067704
10	0xbd42a784	-0.047523037
11	0xbd354968	-0.04425946
12	0x3d636906	0.05552008
13	0xbddc1cd3	-0.10747685
14	0xbe1937b1	-0.14962651
15	0x3d6cf2e9	0.057848845
16	0x3d139102	0.036026962
17	0xbcefa359	-0.029252695
18	0x3ed533bb	0.4164103
19	0xbda44813	-0.080215596
20	0xbd835f29	-0.06414635
21	0xbd31ccb5	-0.043408114
22	0xbe1153bb	-0.14192097
23	0x3e308033	0.17236404
24	0xbe15ba15	-0.14621766
25	0xbe141652	-0.1446164
26	0xbce8e602	-0.028429989
27	0xbd7f507e	-0.062332623
28	0xbc69b834	-0.014265109
29	0xbe104f66	-0.14092788
30	0x3e4965be	0.19667718
31	0xbe8d7be7	-0.27633592
32	0x3e11dbc7	0.14243995
33	0x3e38fad7	0.18064438
34	0x3d169878	0.0367665
35	0x3d881c27	0.06645995
36	0x3cc3d5f5	0.023905734
37	0xbe1efa81	-0.15525247
38	0x3df87a75	0.12132732
39	0xbe753f9a	-0.23950043
40	0x3c8f375b	0.01748245
41	0x3d7b7be6	0.061397456
42	0xbcea1725	-0.02857549
43	0xbcbe441d	-0.023225838
44	0x3e19d73b	0.1502351
45	0x3df813f1	0.121131785
46	0xbe3ff95f	-0.18747471
47	0xbe1f3b5f	-0.15549992
48	0x3d407bf9	0.04699323
49	0xbdfaf201	-0.1225319
50	0x3e310d1c	0.17290157
51	0x3d084d3c	0.03327678
52	0xbd951769	-0.07279856
53	0xbe233d7a	-0.1594142
54	0xbd915e41	-0.07098056
55	0xbde1ad1a	-0.11019345
56	0x3c7c75af	0.015408917
57	0x3d5141ba	0.051088072
58	0x3cce3087	0.025169624
59	0xbeac3bea	-0.3363946
60	0xbae8fdef	-0.0017775873
61	0xbd3cc830	-0.04608935
62	0x3ebc3574	0.36759531
63	0x3e5a61e2	0.21326402
64	0xbd9fccc9	-0.078027315
65	0xbe93a09c	-0.28833473
66	0x3d7ff1cf	0.062486466
67	0xbd4c1789	-0.049827132
68	0x3d547e8c	0.051878497
69	0xbc391edf	-0.011298864
70	0xbe6737fc	-0.2257995
71	0xbd3910b8	-0.04518196
72	0x3c66da95	0.0140902
73	0x3e727324	0.23676735
74	0xbc622b1b	-0.013804222
75	0xbd486a6d	-0.04892962
76	0x3eae4253	0.34034976
77	0x3d80fac2	0.06297828
78	0xbd9eb930	-0.077501655
79	0x3def801b	0.11694356
80	0x3e12cb39	0.14335336
81	0x3db4f914	0.088365704
82	0x3da21f72	0.07916154
83	0x3d66efa8	0.056380898
84	0x3dc8778d	0.097884275
85	0xbe115582	-0.14192775
86	0xbe19a961	-0.15006019
87	0xbdd7ec55	-0.10543124
88	0xbe302612	-0.17202023
89	0xbdec44f9	-0.11536593
90	0x3eaca656	0.33720654
91	0xba1fd224	-0.0006096682
92	0x3dd66c7f	0.10469913
93	0x3d26fa9e	0.04076635
94	0xbc357c87	-0.011077053
95	0x3d9e31d9	0.077243514
96	0x3bde93f6	0.0067925407
97	0xbd993444	-0.07480672
98	0x3e9da4f6	0.30789918
99	0x3e122f32	0.14275816
100	0x3dfcb341	0.123388775
101	0x3e1f8f1b	0.15581934
102	0x3ea6678a	0.3250087
103	0xbdf633c9	-0.12021596
104	0x3dd82c0e	0.10555278
105	0xbd565483	-0.05232669
106	0xbe1b77ff	-0.15182494
107	0xbd92a0f5	-0.07159606
108	0xbc059a76	-0.008154502
109	0xbd91bf04	-0.071165115
110	0xbe826568	-0.25467992
111	0xbcc4f03f	-0.02404034
112	0xbe462f72	-0.19354036
113	0xbe0ac4f2	-0.13551691
114	0xbb9ffb65	-0.0048822635
115	0x3e006e98	0.12542188
116	0x3c1b1c49	0.009467193
117	0x3de5db7a	0.112235025
118	0x3e8f239c	0.27956855
119	0x3ee784be	0.45218462
120	0x3c30e32a	0.010796348
121	0xbd564db3	-0.052320193
122	0x3d956c3f	0.07296037
123	0x3e2d25c9	0.16908945
124	0xbe59175f	-0.21200322
125	0x3e1c70a6	0.15277347
126	0xbdf2b9f1	-0.11851872
127	0xbb60aff3	-0.0034284561
128	0x3c204ab4	0.009783436
129	0xbd8c8951	-0.068621285
130	0xbcaf284e	-0.021381523
131	0x3dac7756	0.08421199
132	0xbc7d611b	-0.015465046
133	0x3e88bea8	0.2670796
134	0xbe24fb38	-0.16111457
135	0x3dc37889	0.09544475
136	0xbe6f4463	-0.23365931
137	0x3ea56545	0.32303825
138	0xbe343e95	-0.17601998
139	0xbd59a9f9	-0.053140614
140	0x3d8ef8fc	0.06981084
141	0xbdc77392	-0.0973884
142	0xbdf0517d	-0.11734293
143	0x3e3b4fd2	0.18292168
144	0xbd8cfe41	-0.068844326
145	0xbd20f934	-0.03930016
146	0xbe5fcb69	-0.21854939
147	0x3dd62e6a	0.104580715
148	0x3e7b6056	0.24548468
149	0x3e015fa7	0.12634145
150	0xbd6ebe0f	-0.058286723
151	0x3e4b5cc4	0.19859606
152	0xbd059dbc	-0.03262113
153	0xbd8af223	-0.06784465
154	0x3ebf1c47	0.3732626
155	0xbc2ca6c7	-0.01053781
156	0xbdbf610b	-0.09344681
157	0x3d8f5a2d	0.069996215
158	0x3e381fe4	0.17980915
159	0x3e702a01	0.23453523
160	0x3e1118b3	0.14169578
161	0xbe1f4281	-0.15552713
162	0x3e321cbf	0.17393778
163	0x3dd6440b	0.10462197
164	0xbe9a2eaa	-0.30113727
165	0xbe625fd2	-0.22106865
166	0x3deee722	0.11665179
167	0xbd31faa5	-0.043451924
168	0x3d751fe2	0.05984486
169	0x3e3cd2f1	0.18439843
170	0xbdfa7a87	-0.122304015
171	0xbe078c0b	-0.13237016
172	0xbd33770c	-0.043814704
173	0xbd6fb289	-0.058519874
174	0x3ee1c969	0.44098976
175	0x3ec8e617	0.39238045
176	0xbe01e3db	-0.12684576
177	0xbbe9aa78	-0.007130917
178	0xbd5bcef0	-0.053664148
179	0x3d6314a8	0.05543962
180	0x3df0e6e8	0.11762792
181	0xbd9ef71b	-0.077619754
182	0x3e116b41	0.1420107
183	0x3dec2e06	0.11532216
184	0x3dc357f5	0.09538261
185	0x3dcc7c7f	0.09984683
186	0xbb18811b	-0.0023270312
187	0x3e0d05ac	0.13771695
188	0x3e4ea762	0.20181039
189	0x3e26895f	0.1626334
190	0xbd884613	-0.066539906
191	0x3d0a98b4	0.033837035
192	0xbe0f3747	-0.1398593
193	0xbe1d5650	-0.15364957
194	0x3d0f7920	0.035027623
195	0x3dbe4bfb	0.09291836
196	0xbdd45dec	-0.10369477
197	0xbda9d640	-0.08292818
198	0xbd9cde36	-0.07659571
199	0x3dbd0dc1	0.09231139
200	0x3e7409d4	0.23831874
201	0x3d513c45	0.051082868
202	0x3de37481	0.11106206
203	0x3e35fd94	0.17772514
204	0xbe721fd3	-0.23644952
205	0x3bbde8e8	0.005795587
206	0xbd7d4832	-0.06183643
207	0xbd355220	-0.044267774
208	0xbe448f75	-0.1919535
209	0xbdc85dd4	-0.09783521
210	0xbe719cf0	-0.23595023
211	0xbdc0de67	-0.0941742
212	0x3e051f0a	0.13000122
213	0xbcc8b528	-0.024500445
214	0xbdf90fdd	-0.12161229
215	0x3e150b84	0.14555174
216	0x3d989b0b	0.07451447
217	0x3db6400b	0.08898934
218	0x3e54560c	0.2073595
219	0x3d9fab5a	0.077963546
220	0x3e2ce572	0.16884401
221	0xbca79be0	-0.02046007
222	0x3dd9282f	0.106033675
223	0x3dcadbb6	0.09905188
224	0x3da2c7bd	0.07948253
225	0x3dab7cad	0.083733894
226	0xbde0308e	-0.10946761
227	0x3cf2a449	0.029619353
228	0xbe88734b	-0.26650462
229	0xbd7d660e	-0.061864905
230	0x3c6020a4	0.013679657
231	0xbe235226	-0.15949306
232	0x3dad8af3	0.08473768
233	0x3e22d66f	0.15902112
234	0x3e08ef24	0.13372475
235	0xbe100f0d	-0.14068241
236	0xbdaf459e	-0.085582
237	0xbd2790e2	-0.040909655
238	0x3e563a76	0.20920739
239	0xbe533cda	-0.20628682
240	0xbd60e1e5	-0.05490293
241	0xbdf54cf9	-0.11977572
242	0x3e4cda86	0.20005235
243	0x3c5bb559	0.013409936
244	0xbcb0f790	-0.021602422
245	0xbe0d48d9	-0.1379732
246	0x3dfb1612	0.12260069
247	0xbda85592	-0.08219446
248	0xbd980652	-0.074230805
249	0x3e4aa738	0.19790351
250	0xbe3f0e04	-0.1865769
251	0x3e0b1d32	0.13585356
252	0xbe12f921	-0.14352848
253	0xbdeb3007	-0.1148377
254	0x3e8db96b	0.27680525
255	0xbd7bd09d	-0.061478246

projp.bias f4 [384]
0	0x3dd835f1	0.105571635
1	0x3c1c9ad9	0.009558403
2	0xbbbffc89	-0.005858962
3	0xbc4ad993	-0.012380975
4	0xbc32a267	-0.010902978
5	0xbb3f5d76	-0.0029199994
6	0xbeac77ab	-0.3368505
7	0xba0f2854	-0.00054610264
8	0xbe70f29f	-0.23530053
9	0xbe26827c	-0.16260713
10	0x3e520adf	0.2051196
11	0x3dd0df5d	0.10198853
12	0x3b38f0ed	0.0028219775
13	0xbd977ddb	-0.07397052
14	0x3e2f7ab6	0.17136654
15	0x39ab68c2	0.00032693712
16	0x3eecd168	0.46253514
17	0xbab37ba8	-0.0013693469
18	0xbd85c0fe	-0.06530951
19	0x3b9da9a1	0.004811481
20	0x3a25a13f	0.0006318278
21	0xbd5b869b	-0.053595167
22	0x3a398098	0.0007076352
23	0x3e88e401	0.26736453
24	0x3c0712fa	0.00824427
25	0xbe50e5e2	-0.20400193
26	0x3e9fa7b7	0.31182644
27	0x3d78785d	0.060661662
28	0x3a0665cb	0.00051268627
29	0x3d9321f7	0.07184213
30	0xbe06cd45	-0.13164242
31	0xbb46a245	-0.0030309123
32	0x3b80d19a	0.0039312365
33	0xbe2e291e	-0.17007872
34	0x3df26064	0.11834791
35	0xbd86e0e4	-0.06585863
36	0xbe60b17f	-0.2194271
37	0x3baa12c3	0.005190225
38	0xbc2e4f40	-0.010639012
39	0xbbaa1106	-0.0051900176
40	0xbdaf4dfe	-0.08559798
41	0xbea6ce42	-0.32579237
42	0xbd7dbc54	-0.06194718
43	0xbb82b567	-0.00398891
44	0x3dac80cb	0.08423003
45	0x3e4e71fd	0.2016067
46	0x39e806dd	0.00044255602
47	0x3d4b8fa0	0.04969752
48	0xbe07adc0	-0.13249874
49	0x3df451c2	0.119296566
50	0xbac28935	-0.0014841916
51	0x3d8c5523	0.06852176
52	0xba591010	-0.00082802866
53	0x3bf6b51f	0.0075289155
54	0x3e6ccc5c	0.23124832
55	0xbea0d717	-0.314141
56	0xba111816	-0.00055349
57	0xbac73e96	-0.0015201147
58	0xbcfafc88	-0.030637994
59	0x3e873de2	0.264144
60	0xbd1b38db	-0.03789602
61	0xba391ae4	-0.0007061197
62	0x3cdd2f49	0.027000086
63	0x3822f7e6	3.8854683e-05
64	0xbb9e9610	-0.004839666
65	0x3dd65062	0.104645506
66	0xb8c62fd2	-9.450283e-05
67	0xbe4b3c32	-0.19847181
68	0x3e59d5aa	0.21272913
69	0xbdd40cff	-0.10354041
70	0x3c214a3f	0.009844362
71	0xbddf887f	-0.109147064
72	0xbb948f86	-0.004533711
73	0xba54f95a	-0.00081243145
74	0xbda8669f	-0.082226984
75	0xbea6aee7	-0.32555315
76	0x3c1e2823	0.009653124
77	0x3d37d816	0.04488381
78	0xbdd2c7f9	-0.10292048
79	0xbe67b83b	-0.22628872
80	0xbe29a6c1	-0.16567518
81	0x3ab420f1	0.0013742727
82	0xbe7f5a6a	-0.24936834
83	0xba40851f	-0.00073440553
84	0xbaa33818	-0.001245263
85	0xbbd3816a	-0.0064546363
86	0x38d0b9ae	9.9527984e-05
87	0xbb608893	-0.0034261092
88	0x3ba784b0	0.005112253
89	0xbe5b469c	-0.21413654
90	0xbe8ce1f0	-0.27516127
91	0x3e6949c5	0.22782047
92	0xbe05a2dc	-0.13050407
93	0x3b862904	0.004094245
94	0x3e647bc7	0.22312842
95	0x3aa5ddae	0.0012654567
96	0xbb439370	-0.0029842518
97	0x3a75d685	0.0009377974
98	0xbecae651	-0.39628842
99	0xbcdd60eb	-0.027023753
100	0x3d270e31	0.04078502
101	0xbdb07fb2	-0.08618106
102	0x3e5e670b	0.21718995
103	0x3aef303f	0.0018248631
104	0x3d5caeb9	0.053877566
105	0x3e4b215e	0.19836947
106	0xbec83872	-0.39105564
107	0x3b216025	0.0024623957
108	0x3b1211c3	0.002228842
109	0xbb05dc27	-0.002042541
110	0xbe4f86ab	-0.20266216
111	0xbe62b02f	-0.22137521
112	0x3bb609bf	0.005555361
113	0xbce616c6	-0.028087031
114	0xbbbaeb30	-0.005704306
115	0xbd466717	-0.048438158
116	0xbe6e6980	-0.23282433
117	0xbabfa7ba	-0.001462213
118	0xbdee8a3b	-0.11647459
119	0xbe9cb648	-0.3060782
120	0x3e738d72	0.23784426
121	0xbb97265d	-0.0046127276
122	0xb8e65859	-0.00010983711
123	0x3d54c523	0.051945817
124	0xba0676ac	-0.0005129378
125	0x3e436467	0.19081269
126	0x3c3e496b	0.011614184
127	0x3be9e756	0.007138173
128	0xba4c4674	-0.0007792481
129	0x3cf2fc0e	0.029661205
130	0xbb1d1cb3	-0.0023973405
131	0x3bdb5f49	0.0066947085
132	0xbdf40f71	-0.11917008
133	0xbe5c3195	-0.21503289
134	0x3b1f60fb	0.002431928
135	0xbaf26e8d	-0.0018496081
136	0xbd33f974	-0.04393907
137	0x3e01e360	0.12684393
138	0xb97c0baa	-0.00024036938
139	0xbd2b822e	-0.041872196
140	0xbe4a4346	-0.19752225
141	0xbba021a9	-0.004886825
142	0xbe015e83	-0.1263371
143	0x3bc34109	0.0059586805
144	0xbe85d4cb	-0.2613891
145	0x3bb32537	0.005467083
146	0xbb6cf3dc	-0.0036156094
147	0xbbe488b9	-0.0069743064
148	0x3aef442d	0.0018254571
149	0x3e003b5d	0.12522645
150	0xba76dc42	-0.0009416976
151	0xbe996d4d	-0.29966202
152	0xbbd564d6	-0.0065122647
153	0x3ec1bb7f	0.3783836
154	0xbe01a855	-0.1266187
155	0xbbbb66a5	-0.0057190233
156	0xbdb91e22	-0.090389505
157	0xbc3e2a8b	-0.011606823
158	0xb9dcdc9f	-0.00042126045
159	0xbec69582	-0.3878594
160	0xbb13b36c	-0.0022537364
161	0x3db7bb75	0.089713015
162	0xba9fe14d	-0.0012197882
163	0x3e17d486	0.14827165
164	0xbb90c089	-0.004417483
165	0xbe5f2183	-0.21790127
166	0xbdb16d8b	-0.08663472
167	0xbd8c565a	-0.06852408
168	0xbd161c27	-0.036647942
169	0x3d899069	0.06716997
170	0x3bc828f9	0.0061084
171	0x3e897999	0.26850584
172	0xbb5fa056	-0.0034122667
173	0x3dbcb4f2	0.092142
174	0x3d6ebd50	0.05828601
175	0x3a01a424	0.00049454183
176	0xbe9f823c	-0.31154048
177	0x3e596da8	0.21233237
178	0xbb9021c3	-0.004398556
179	0x3ba3f2ed	0.0050033242
180	0xbe621395	-0.22077782
181	0x3d7c814f	0.061646756
182	0xbd8a5c83	-0.067559265
183	0xbe8fec0f	-0.28109786
184	0x395518cd	0.00020322502
185	0xbe6bb65c	-0.23018783
186	0x3d923195	0.07138363
187	0x3dbe71b0	0.09299028
188	0xbc973c30	-0.018461317
189	0xbe7c500f	-0.24639915
190	0xbaa57b7f	-0.0012625306
191	0x3ad56188	0.0016279677
192	0x3e097fbb	0.13427632
193	0xba429d42	-0.0007423946
194	0xbd2ccd98	-0.042188257
195	0xbb228988	-0.0024801213
196	0xba8ee8cc	-0.0010903119
197	0x3dcc4230	0.09973562
198	0xbcf3edf7	-0.029776556
199	0x3d8e1117	0.069368534
200	0x3d9341de	0.071902975
201	0x3985a3ce	0.0002548978
202	0xbd6b5436	-0.057453357
203	0x3c85db3a	0.016339887
204	0x3e8f6b67	0.2801163
205	0x3bcc030e	0.00622595
206	0x3c5a4652	0.01332243
207	0x3b6978e4	0.0035625035
208	0xbc052943	-0.008127513
209	0xbd2bf319	-0.041979883
210	0x3a84aa3d	0.0010121536
211	0x3b8d90d4	0.0043202434
212	0xbb06c63e	-0.002056494
213	0x3b29c48b	0.0025904502
214	0x3ba71b28	0.005099673
215	0x3e85db5c	0.2614392
216	0x3dd880a0	0.10571408
217	0xbb792875	-0.00380185
218	0xbbae1daf	-0.005313597
219	0xbd82d8ff	-0.06389045
220	0xbb2bf4ba	-0.0026238398
221	0xba7cdc13	-0.0009645831
222	0x3cf81a9e	0.03028613
223	0x3e2e7504	0.17036825
224	0xb9c05e30	-0.0003669127
225	0x3aece3ce	0.0018073262
226	0x3ae675d4	0.0017582723
227	0xbe2ae7ab	-0.16689937
228	0xbdad7c09	-0.084709235
229	0xba8257b8	-0.0009944355
230	0x3b25cc0c	0.0025298623
231	0xba0b11fd	-0.00053051097
232	0xb9fda242	-0.00048376812
233	0x3ad41ea3	0.0016183447
234	0xbde643d7	-0.11243408
235	0x3de0c1e7	0.10974484
236	0x3adb740f	0.0016742962
237	0xbc55f677	-0.01305925
238	0xbbad178a	-0.005282347
239	0xb9f0db86	-0.00045939925
240	0x3a487964	0.0007647483
241	0x3e3d78ea	0.18503156
242	0x3ae70caa	0.0017627676
243	0xbb8cc57e	-0.004296004
244	0x3eaaf6bd	0.3339137
245	0xbbd5603b	-0.0065117157
246	0xbc91a378	-0.017778143
247	0x3ccd4322	0.025056425
248	0xba378bb1	-0.00070017116
249	0x3aabd6c4	0.001311027
250	0x3a7f2f62	0.00097345386
251	0x3d1bce04	0.03803827
252	0xbec55a37	-0.3854539
253	0x3e6efe1a	0.2333912
254	0x3e2f553a	0.17122355
255	0x3d3c7c0c	0.046016738

projm.weight f4 [384, 21]
0	0x3e4c34d1	0.19942023
1	0xbcb8bdab	-0.022551378
2	0x3d058c46	0.03260448
3	0xbe54bd43	-0.20775323
4	0xbe0a5aae	-0.13511154
5	0xbe450175	-0.19238837
6	0x3e1a3fcb	0.15063398
7	0xbdc65864	-0.09684828
8	0x3dbef73e	0.093245015
9	0xbdea025c	-0.11426231
10	0x3e215dc6	0.15758428
11	0xbd8d370c	-0.06895265
12	0x3ddd8123	0.108156465
13	0x3dc3dfb4	0.09564152
14	0xbe2133e7	-0.15742455
15	0x3e70726d	0.2348115
16	0xbe3ae2c1	-0.18250562
17	0x3cc1e674	0.023669459
18	0xbde157ef	-0.110031
19	0x3b74939b	0.0037319425
20	0xbe1e0d8d	-0.15434857
21	0xbd8d2352	-0.068915024
22	0x3dc96c95	0.098351635
23	0x3c79b2ca	0.015240381
24	0x3e0fd873	0.14047413
25	0x3de9cddc	0.11416218
26	0x3de9661c	0.11396429
27	0xbc84ca84	-0.016209848
28	0x3d7a88fc	0.061165795
29	0xbd9500a4	-0.07275513
30	0x3de10c93	0.109887265
31	0xbe2a66ef	-0.16640829
32	0x3c2e6671	0.010644541
33	0xbe063f08	-0.13109982
34	0xbd4b640d	-0.049655963
35	0x3d3ec2a0	0.046572328
36	0xbd89203a	-0.066956
37	0xbc5002ad	-0.01269595
38	0x3d664587	0.05621865
39	0x3da6f5bf	0.08152341
40	0xbd3a748b	-0.0455213
41	0x3dd65360	0.10465121
42	0xbdcf0cf2	-0.10109891
43	0x3e24bde2	0.1608806
44	0x3cbfd855	0.023418585
45	0x3e44ad2b	0.19206683
46	0x3e093eb3	0.13402824
47	0x3e131e21	0.14366962
48	0xbb994f81	-0.004678667
49	0x3de341a0	0.11096501
50	0xbe1f406c	-0.15551919
51	0x3ddfda16	0.109302685
52	0xbe1c7bf1	-0.15281655
53	0x3da69a63	0.08134916
54	0xbe43a69d	-0.19106527
55	0xbe23494f	-0.15945934
56	0x3e2e7869	0.1703812
57	0xbe2534ee	-0.16133472
58	0x3d6f205e	0.058380477
59	0xbbb8881b	-0.0056314594
60	0x3d9c556a	0.07633479
61	0xbd3a193c	-0.04543422
62	0x3e4bd7ed	0.19906588
63	0xbd04a81c	-0.032386884
64	0x3dd7bf83	0.10534575
65	0xb9d52d0d	-0.0004066009
66	0x3e39f799	0.18160857
67	0x3db4c4c3	0.08826592
68	0x3db43bf0	0.08800495
69	0xbd4d5619	-0.050130937
70	0x3e1610e8	0.14654887
71	0xbcef7813	-0.02923206
72	0x3da088ec	0.07838616
73	0xbdddc122	-0.10827853
74	0x3cf95f71	0.030441018
75	0xbdd9b706	-0.10630612
76	0xbd69b016	-0.057052694
77	0x3d5f3fe7	0.0545043
78	0xbcdc89d5	-0.026921192
79	0x3d8658a4	0.065598756
80	0xbaca9cf6	-0.0015458155
81	0x3dd88b83	0.10573485
82	0xbccf4f5e	-0.0253064
83	0x3d3c0930	0.0459072
84	0x3e028d11	0.12749125
85	0xbe0d6944	-0.13809687
86	0xbcb2aec6	-0.021811854
87	0xbe89bc6c	-0.26901567
88	0xbe11da52	-0.14243439
89	0xbe0b4641	-0.13601018
90	0x3d62860b	0.055303615
91	0xbde1a7c7	-0.11018329
92	0x3dd40adf	0.10353636
93	0xbe189407	-0.14900218
94	0x3e194efd	0.14971538
95	0xbd180970	-0.037118375
96	0x3e2a7ff6	0.16650376
97	0x3e16b9c2	0.14719298
98	0xbe3e6ac5	-0.18595417
99	0x3e03d0d8	0.12872636
100	0xbd9471ed	-0.07248292
101	0x3b07a890	0.0020699836
102	0xbdb32685	-0.087475814
103	0x3d08436c	0.033267424
104	0xbe3f48d8	-0.18680131
105	0xbdba268c	-0.090893835
106	0x3d8697ad	0.065718986
107	0x3e99a7ba	0.30010778
108	0x3e405243	0.1878138
109	0x3e83fc77	0.25778553
110	0xbe17c8fc	-0.14822763
111	0xbdd104a5	-0.10205964
112	0x3e9d9e5d	0.30784884
113	0xbe00608f	-0.12536834
114	0x3e8152d2	0.252585
115	0xbda8dd31	-0.08245314
116	0x3e870eba	0.26378423
117	0xbe7d0984	-0.24710661
118	0xbe1181b2	-0.14209631
119	0x3e388af8	0.18021762
120	0xbce294a8	-0.027658775
121	0xbe2e9fb3	-0.17053108
122	0x3e3357a3	0.175139
123	0xbcd69bae	-0.02619728
124	0xbe03bb21	-0.12864353
125	0x3e735acd	0.23765106
126	0x3e4a9347	0.19782744
127	0xbe921848	-0.2853415
128	0xbbd168dc	-0.006390674
129	0xbeb1465b	-0.3462399
130	0xbe2f5780	-0.17123222
131	0xbe7a94b6	-0.24470791
132	0x3dd3a5f6	0.10334389
133	0xbe6eee05	-0.23332985
134	0x3e3d8650	0.18508267
135	0xbddfb063	-0.10922315
136	0x3e817b54	0.25289404
137	0xbd896001	-0.067077644
138	0x3e636d30	0.2220962
139	0x3eb0582d	0.34442273
140	0xbe87b6cd	-0.26506653
141	0x3e6cabb3	0.23112373
142	0xbdf095c0	-0.117473125
143	0xbcf69db0	-0.030104488
144	0xbd805504	-0.062662154
145	0x3dceca7d	0.10097215
146	0xbe9883ac	-0.29787958
147	0x3dc56dc1	0.096400745
148	0x3e6258a1	0.22104122
149	0x3e07fa15	0.13278992
150	0x3d995935	0.07487718
151	0x3e859d25	0.26096454
152	0xbe55a5c8	-0.20864022
153	0xbeb1b808	-0.34710717
154	0x3bba508a	0.0056858705
155	0x3e53fecc	0.20702666
156	0xbd8324a2	-0.064034715
157	0x3d7c6383	0.06161834
158	0xbd17ef34	-0.037093356
159	0x3dbdf482	0.09275152
160	0xbe465d4f	-0.19371532
161	0xbe6f07e9	-0.23342861
162	0x3e2eb4ed	0.17061205
163	0x3dddf04b	0.10836848
164	0x3dc5d178	0.096590936
165	0xbe64ba75	-0.22336753
166	0xbe5bc686	-0.2146245
167	0x3d1b3922	0.037896283
168	0xbe2553de	-0.16145274
169	0x3e558d12	0.20854595
170	0xba14b801	-0.00056731707
171	0x3df993cf	0.121863954
172	0x3e41184f	0.18856929
173	0x3e842cf8	0.25815558
174	0xbb254268	-0.0025216583
175	0x3db99d07	0.09063154
176	0xbe36a8fa	-0.17837897
177	0x3e484e64	0.19561154
178	0xbe717499	-0.23579635
179	0x3e154c51	0.14579894
180	0xbe67042d	-0.22560187
181	0xbe53064a	-0.20607868
182	0x3de73301	0.11289025
183	0xbe571700	-0.21004868
184	0x3dbc3666	0.09190063
185	0x3c9cfb8a	0.019162912
186	0x3e112368	0.14173663
187	0xbd6df2f9	-0.058093045
188	0x3e4fff39	0.20312203
189	0x3d2d9f3b	0.042388182
190	0xbcb08c7c	-0.021551363
191	0xbd756fb0	-0.059920967
192	0x3d9a091e	0.0752127
193	0xbde7f518	-0.11326045
194	0xbe1f5eda	-0.15563527
195	0xbd8c75b3	-0.06858387
196	0xbdafbac3	-0.08580544
197	0x3df870e3	0.121309064
198	0x3e259b2e	0.16172478
199	0x3cfa46fb	0.030551424
200	0xbe382ba4	-0.17985398
201	0xbe3e9439	-0.1861123
202	0x3e3dbea2	0.18529752
203	0x3dca0f11	0.09866155
204	0x3d881924	0.0664542
205	0xbdee7797	-0.11643904
206	0xbdb3fcfc	-0.08788487
207	0xbe408257	-0.1879972
208	0x3e2c44f8	0.16823184
209	0x3e20f8c5	0.15719898
210	0x3d8bbd50	0.06823218
211	0x3c1c65b1	0.0095457295
212	0xbce826c6	-0.028338801
213	0xbe42d9dd	-0.19028421
214	0xbd1af03a	-0.037826754
215	0xbd05bedd	-0.032652725
216	0xbcd2b772	-0.02572224
217	0xbcba1577	-0.022715313
218	0x3d934f60	0.07192874
219	0xbdb6fdff	-0.08935165
220	0x3db3bc8f	0.08776199
221	0x3a8a4422	0.001054887
222	0x3e2a51c1	0.16632749
223	0x3db2e56c	0.08735165
224	0xbda03294	-0.07822147
225	0x3e439a05	0.19101723
226	0x3c91ee66	0.017813873
227	0xbd350a61	-0.04419935
228	0xbcce616b	-0.025192937
229	0xbc1d3d9c	-0.009597208
230	0xbe0c35b0	-0.13692355
231	0xbe05b146	-0.13055906
232	0x3dff718e	0.12472831
233	0xbddca660	-0.10773921
234	0xbd82cb58	-0.06386441
235	0x3d0a23f5	0.033725698
236	0x3d7f3d97	0.062314596
237	0x3d4909df	0.04908168
238	0xbd89bf81	-0.067259796
239	0x3e3306c4	0.1748305
240	0x3ce80764	0.028323837
241	0x3d067415	0.03282555
242	0xbe5d29a7	-0.2159792
243	0x3d870bc7	0.06594043
244	0xbdf273a7	-0.11838465
245	0x3db70d7c	0.08938119
246	0x3e271591	0.1631682
247	0x3d78f45d	0.060779918
248	0xbe3f6e50	-0.18694425
249	0xbd1c293c	-0.03812526
250	0xbd4e7a04	-0.050409332
251	0xbcf17db8	-0.029478893
252	0x3e4d08a8	0.20022833
253	0x3ddcf243	0.10788395
254	0x3db2938e	0.0871955
255	0x3de17953	0.11009469
